models/2conv___510.00max__133.44avg____0.00min__1658518720.model (torch, 73406 bytes, 12 tensors)

seq.0.weight f4 [16, 1, 3, 3]
00000000: c8eb 20bf 585a 13c0 c438 9d3e 32b7 11c0
00000010: af68 9f3f 4cfd bdbf 4ab0 ed3e 89ff cdbf
00000020: 462b e43e b6de 28c0 4a38 1540 5f25 0b40
00000030: f731 ee3f 5ff8 f83f de91 12c0 d2bc a63f
00000040: 2f69 bcbe 7c6d 96be 9d81 693e e5c0 103f
00000050: d888 51c0 5d7f fcbc 7372 8b3e 4795 febf
00000060: a7c4 eb3d 5804 19bd 89ca 08bd 6fae 41be
00000070: 9e91 4abf f0c9 d6bf b84e 4dbf 1b51 87bf
00000080: 9d90 c2bf bff3 783d 43d5 d13f f706 d43f
00000090: f4b5 893f f298 073f b8a7 d43e 5040 a93f
000000a0: fc68 3a3f 754b 073f e738 77c0 07c0 ab3f
000000b0: 3e29 413f f78d 1a3f 72d5 d7bf 5210 073f
000000c0: e9b2 85bf 1a4c 2ac0 3409 debf 52ab f03d
000000d0: 77c2 8ebf 57fe f73e c5db 843e 9514 9e3e
000000e0: 013e f4bd 6e96 5e3e 495b 7e3e 96f2 7cbe
000000f0: 3643 213f b259 84c0 12c8 e8bf a363 58bb
00000100: aded ba3d aa45 b2be d3e6 343c 9956 153e
00000110: 2f5f c9bf d1e2 273e 3817 033f 17bf 72c0
00000120: 4ce5 513e 45e9 91bf 59a7 a4bc 8738 92bf
00000130: e58a 0d3e 7a6f d4bf 7a0e a53d 4bbc d0bf
00000140: e4f4 dbbf 6a41 2ec0 12e4 eebe 0005 63bd
00000150: f7a0 a73f 02bf 4e3e 667d 6abe 4331 6d3f
00000160: 8a0d 4fbf 438e 9b3d afe3 1640 cbfa 2740
00000170: 990b 1b40 082f 1d40 fa62 d5bf 5b40 2640
00000180: b421 0440 8f07 0b40 7ee0 09c0 ffd0 b73f
00000190: cab3 333f dc2f 803f 7d55 293f dc33 cbc0
000001a0: 1a38 063f 7ac4 473f 45fa 853f a186 843f
000001b0: 05dc b3be 9c81 b7be 2736 eebd f030 9ebf
000001c0: 7eca 523e 0f72 eebe a430 71c0 1e79 873f
000001d0: 7831 fb3d fb63 88be 170e 59bf 1c11 90be
000001e0: cb1e 2ec0 281b 703f 12f2 683d 297f c03f
000001f0: ea21 843f 290d 05c0 6605 4e3f 13ea bf3f
00000200: a738 71c0 53d3 e63e 9f0c 303f 0fea b13f
00000210: 8a43 9d3e 38bd ea3e 4af8 3a3f 8b4c 5a3e
00000220: 2096 70c0 0ab2 0ec0 bec9 05be 2ad9 d53e
00000230: dfbf f9be 44cc e8bd 8009 33be 89c8 433d
-0.62859774 -2.3023891 0.3070737 -2.2768064 1.2453822 -1.4842925 0.4642356 -1.6093608
0.44564265 -2.6385932 2.3315606 2.174156 1.8608998 1.9450797 -2.290153 1.3026373
-0.36799 -0.29380405 0.2280335 0.56544334 -3.2739773 -0.03082245 0.27235755 -1.9889306
0.11512118 -0.03735766 -0.033396278 -0.18914197 -0.79128444 -1.6780376 -0.8019824 -1.0571626
-1.5200382 0.06077933 1.6393207 1.6564626 1.0758653 0.5296775 0.4153421 1.3222752
0.72816443 0.52849513 -3.862848 1.3417977 0.75453556 0.6037287 -1.6862013 0.5275928
-1.0445224 -2.6608949 -1.7346559 0.11751427 -1.1153096 0.48436233 0.2594892 0.30875078
-0.11925889 0.21737072 0.2483951 -0.24701914 0.6299318 -4.135949 -1.8186057 -0.0033018372
0.09127364 -0.34818774 0.011041361 0.14583816 -1.5732173 0.16395117 0.51207304 -3.7929132
0.20497626 -1.1399313 -0.020099329 -1.1423501 0.13822515 -1.659652 0.08059402 -1.6307462
-1.718411 -2.7227426 -0.4665838 -0.05542469 1.3095998 0.20190051 -0.22899398 0.9265329
-0.80880034 0.07595494 2.3576467 2.6246822 2.4225829 2.4559956 -1.667083 2.597678
2.064557 2.1723363 -2.154327 1.4360656 0.7019621 1.0014606 0.6614607 -6.3500805
0.52429354 0.78034174 1.0467001 1.0353585 -0.351288 -0.35841072 -0.116314225 -1.2358685
0.20585057 -0.46571395 -3.7685938 1.0583837 0.12265295 -0.2663878 -0.84787124 -0.28138053
-2.7206295 0.9379144 0.05687148 1.5038806 1.032285 -2.0789282 0.8047699 1.4993309
-3.7690828 0.45083103 0.6876926 1.3899554 0.3071559 0.45847487 0.7303511 0.21318261
-3.759163 -2.2296166 -0.1306524 0.41767246 -0.487792 -0.113670856 -0.17484093 0.047798667

seq.0.bias f4 [16]
00000000: 5851 1bc0 0b4b 62c0 f1bb 48c0 2565 33c0
00000010: 7319 57c0 154f 32c0 6e1c 89c0 1633 77c0
00000020: 69fd 0cc0 5e71 0bc0 8d26 78c0 e9f1 75c0
00000030: 9d6a 5ec0 6285 10c0 a5c4 5cc0 19fd 6bc0
-2.4268398 -3.5358303 -3.136471 -2.8030484 -3.3609283 -2.7860768 -4.2847204 -3.862493
-2.202967 -2.1787944 -3.877353 -3.84289 -3.4752572 -2.258141 -3.4495022 -3.6873229

seq.3.weight f4 [25, 16, 3, 3]
00000000: c31a 813d 454c 5dbe 5f50 34be 6bf2 8c3c
00000010: df74 22be 93e9 2cbe ad28 e2bd 07f9 cfbd
00000020: f0d6 eebd ef04 80bc adde ecbe 6147 bb3d
00000030: 2795 7c3c 67b9 a1bd 7803 6cbe dbff 063d
00000040: 7631 cabd ca6c c9bd d9e0 eabe c571 cdbe
00000050: fd74 3abd abe7 f5bd cc62 7dbe e01c 1fbf
00000060: b0cd 3dbd 4216 ccbd 9acf f6bb 3ded 34be
00000070: b05e 24bf c5cd b6bf 3433 0d3d 1033 08be
00000080: 14b4 03be 4cca 89bd 26d8 48bd 8c65 dbbc
00000090: 791c 7abd 8607 18bf 6eda 84be b1af adbc
000000a0: 3861 8bbe 0676 4fbe 158b 8cbd 086b bdbd
000000b0: fc16 35be 2ed5 93bd 430a 0ebf 59dc 5dbf
000000c0: 9eb3 14be d0d4 603d 13bc a5be d6dd b13c
000000d0: 1eaf adbd 7c5d b33b 1828 92bc 09c6 96be
000000e0: 5309 3d3d e65c 7fbc 3449 81bd 7202 4939
000000f0: de89 ba3c 49c9 9ebd e940 debc 4ad2 47be
00000100: 92aa 573b 18af dbbe 37bc 17bd 2172 6dbd
00000110: 0db1 f13d 1f2c 193d 642f e1bd 5e8e 02be
00000120: d003 2ebf d0a6 27bf aede ba3d 965f f23c
00000130: 730f 17bd 1441 1ebe c89e 40bd 0807 653d
00000140: 85ab 0ebe 089f b0bd 1d01 8dbe b359 97bf
00000150: 69cc a7bc 4a87 143c b6d7 40be a7bc d7bd
00000160: 8ce6 823c 12fd d83d d55c 9b3c 772d 70bd
00000170: 93d6 7a3e 0981 0fbe f71e 91bb 6b07 993e
00000180: 9590 83be 87a1 afbe 8bb7 d0bd 7bb2 fabd
00000190: 8871 463e dacc 13bc 4acd 453d 1fe4 3a3b
000001a0: 172e 63bc 9a21 313d b32f 373d d089 d0bd
000001b0: 6931 86bc 6143 24be 34be d93d 4e8d 33bd
000001c0: 29b6 b5bc 89e3 80bd f936 743d ada1 f8bd
000001d0: 602e 06bd 3b2c efbe ab67 4bbf c004 18bf
000001e0: b4dd 24bd ac65 32bf 5ba1 12be bc3c 1dbd
000001f0: 0c00 4bbe 2259 a9be 176f 04be f500 f93e
00000200: fddb d53e 6872 ccbd ba17 4dbe 79d0 89bd
00000210: 9b6d 173d 704b 99bd 6f58 35be 0b3d 31bf
00000220: 5e20 f0be 4680 37bf 4267 bc3e ea70 90bd
00000230: afd5 a33d 028e 92bd 88b7 debd 65b1 22be
00000240: c22a 3940 9bd0 b23e ccd1 223f 5631 22bf
00000250: 36b9 b73f de76 0f3e cf33 3b40 3ba7 6d3f
00000260: 2eb9 613f 1c58 9140 9bbf 4140 a306 9740
00000270: aa54 f6be e358 d83f fc19 ff3d 1e39 2140
00000280: af7f eb3e 3ec7 023d 7201 c3be cbf6 bd3e
00000290: 0e99 1440 2eae 64bf 88b5 a43e c5da d43f
000002a0: 8992 d63f 96e2 cabf 7d7f 2e40 17bf b8bf
000002b0: 6ddc f2bf 8929 653f ba55 e23e b202 c73f
000002c0: eea0 c93e 7ebe 90bf 1985 fa3d ad23 63bf
000002d0: 9e3e 6840 e22d 3240 d9f6 3c40 a20b c33f
000002e0: 4108 7d3f 42a7 2d40 019b 9d40 c11c 0e40
000002f0: 37d2 7140 bad8 cd3f b5ef e73e 8a2d 7dbf
00000300: 1a4d dabf 6fcc dcbd ee92 4fbf b899 fb3e
00000310: e6f1 f43e b83a 203e 2390 a8be fdd4 aebe
00000320: a9f5 97c0 344f 1040 223c d8be 4353 933e
00000330: fdbd 97be 3cca 61bf 4229 a9c0 03e3 61c1
00000340: 232b 5ec0 54b5 bac0 0574 03c0 52a8 8dc0
00000350: 4086 e8c0 9510 c0c0 47bf 22c1 4bd3 1ac1
00000360: afc9 1fbf 897e eabf c9e4 b23f 52ed b93e
00000370: 7b89 b23f c27f b53e b805 5ebe 7edb bbbf
00000380: 4301 3340 a154 1cc0 c8f7 be3f b119 863e
00000390: 466e 2f3f 6854 7abf 6873 74bf 213c ebc0
000003a0: 0f09 04c0 1bae 513e b8ff 6a3f 72e9 1fbe
000003b0: 6f90 b33f a0b1 3740 3590 8640 8f4d a33f
000003c0: 951a 1940 125b 0c40 da8b 9040 e8ed eb3c
000003d0: d42c db3e eb17 52bf 3a66 cfbd 63f4 a9bc
000003e0: 38b6 d13d 031b 063e 9b7c 01bf 073e 93bf
000003f0: aea9 6cbf 383f fb3d 67c2 743f 12ec d93e
0.063039325 -0.21611126 -0.17608784 0.017205438 -0.15864895 -0.16885976 -0.110429145 -0.1015492
-0.1166209 -0.015627353 -0.46263638 0.09144474 0.01541642 -0.07896691 -0.23048198 0.032958847
-0.09872715 -0.09835203 -0.4587467 -0.40125862 -0.045521725 -0.12007078 -0.2474472 -0.62153435
-0.046338737 -0.09965183 -0.0075320723 -0.17668624 -0.6420698 -1.4281546 0.03447266 -0.13300729
-0.12861663 -0.06728038 -0.04903426 -0.02678182 -0.06106231 -0.5938648 -0.259479 -0.02120194
-0.2722261 -0.20259866 -0.06862465 -0.0924893 -0.17684549 -0.07218395 -0.5548441 -0.8666435
-0.14521644 0.054890454 -0.32370052 0.021712225 -0.084806666 0.0054737907 -0.017841384 -0.29447964
0.04615147 -0.015586114 -0.063127905 0.00019169765 0.022770818 -0.07753236 -0.027130561 -0.19513813
0.0032908064 -0.42907023 -0.03704473 -0.05797017 0.11801348 0.037395593 -0.10995367 -0.12749621
-0.6797457 -0.6548891 0.09124504 0.029586595 -0.036879968 -0.15454513 -0.047026426 0.05591491
-0.13932617 -0.08624083 -0.27539912 -1.1824249 -0.020483213 0.009065459 -0.18832287 -0.105340295
0.015979074 0.10595144 0.018965164 -0.05863711 0.24495916 -0.14014067 -0.00442874 0.29888472
-0.25696245 -0.34302923 -0.10191258 -0.12241074 0.19379246 -0.009021008 0.048291482 0.0028517318
-0.013865969 0.043244936 0.044723224 -0.10182536 -0.016380982 -0.16041328 0.106319815 -0.04383593
-0.022181587 -0.06293399 0.05962274 -0.12140212 -0.03275907 -0.46713433 -0.7945506 -0.5938225
-0.040250495 -0.6968639 -0.14319365 -0.038388 -0.19824237 -0.33075815 -0.12933002 0.48633543
0.417694 -0.09982759 -0.20028582 -0.06729216 0.036969762 -0.07485092 -0.17709516 -0.6923377
-0.46899694 -0.71680105 0.3679753 -0.07052787 0.07999741 -0.07155992 -0.108748496 -0.15887983
2.8932347 0.34924778 0.63601375 -0.6335653 1.4353397 0.14010188 2.9250371 0.928333
0.88173187 4.5420055 3.0273197 4.71956 -0.4811147 1.6902126 0.12456128 2.5191112
0.45995852 0.031928293 -0.3808704 0.3710235 2.3218417 -0.8932828 0.32169747 1.6629263
1.6763469 -1.5850399 2.7265313 -1.4433316 -1.8973519 0.895165 0.4420603 1.5547698
0.39380592 -1.1308134 0.122324176 -0.8872631 3.6288218 2.7840505 2.9525664 1.5237925
0.9884072 2.7133336 4.9251714 2.220505 3.7784555 1.6081765 0.4530007 -0.9889761
-1.705478 -0.1078118 -0.8108357 0.49140716 0.47840804 0.156474 -0.32922468 -0.34146872
-4.748738 2.2548342 -0.42233378 0.2877446 -0.29637137 -0.8819921 -5.2862864 -14.117923
-3.4713829 -5.834635 -2.0539563 -4.426797 -7.266388 -6.002024 -10.171699 -9.676585
-0.6241712 -1.8319865 1.397607 0.36313874 1.3948206 0.35449034 -0.21681869 -1.4676359
2.796952 -2.4426653 1.4919367 0.26191476 0.6852764 -0.97785044 -0.95488596 -7.35109
-2.063053 0.20476572 0.91796446 -0.15616396 1.4028453 2.8702164 4.2051034 1.2758044
2.3922474 2.1930585 4.5170717 0.028799966 0.4280764 -0.82067746 -0.1012692 -0.020746415
0.102398336 0.13096242 -0.5058076 -1.1503304 -0.9244641 0.122679174 0.95609134 0.4256292

seq.3.bias f4 [25]
00000000: df68 79bf 0fdf 4a3f ecd4 5540 e64c 07bf
00000010: f1bd 613f 1c05 bfbe 4823 56be 5374 c6be
00000020: 99b7 5940 4323 a5be 34b0 d23e 4a05 713f
00000030: 0e35 bf3f 16d0 843f 8d60 e93f 31c4 bbbe
00000040: 2807 a73e 5f0d d53f 326d 9dbf 54c6 8741
00000050: fe0a e5be 3de2 54c0 18a0 bbbe 7120 ccbe
00000060: 3622 e8be
-0.97425646 0.7924661 3.3411207 -0.5285171 0.8818045 -0.37308586 -0.20911896 -0.38760623
3.401831 -0.32253465 0.41150057 0.94148695 1.4938066 1.0376003 1.823259 -0.3667312
0.32622647 1.6644706 -1.2298949 16.97184 -0.4473495 -3.3263085 -0.3664558 -0.398685
-0.453386

seq.6.weight f4 [100]
00000000: 0f92 073f c18f 393e 706d 3d3f 7a08 f63b
00000010: 41af 443f 3887 e83e 770f fc3e 9913 433f
00000020: 957d fa3e e08d fe3e becc f73e d200 383f
00000030: ba26 a13e d1e2 003f 2cbd b93e 1f2c 013f
00000040: 0023 9d3f 2541 a23f b67f a73f 809d 8a3f
00000050: 4882 5c3f b6d9 293f 5e65 5c3f 0b55 da3e
00000060: 0bfe 623f e95a 633f 7163 7b3f e06c 7b3f
00000070: 3443 213f 1c65 6c3f 793e 203f 94ef 303f
00000080: fd28 593f 46ab 643f c712 3f3f d884 3f3f
00000090: 0000 803f e5fd 3b3f a09a 673f 0000 803f
000000a0: 8e17 713f 3ec0 383f faa9 a03f d694 803f
000000b0: 3166 a43f 2350 8f3f 62d6 873f 73c7 6e3f
000000c0: 2fb2 4b3f 3aaf 923f dc66 3f3f 4a76 4e3f
000000d0: 31e1 713f 951b a13f b4ee 663f e847 be3f
000000e0: 6654 1f3f 089a 553f 3250 303f 7c14 f73e
000000f0: b24f 133f 240f 363f c517 423f 1e06 813f
00000100: 2d0b 483f 630a 0a3f 4ec0 063f bc34 433f
00000110: ad91 823f 2a33 3d3f 67d5 4d3f 0ab4 563f
00000120: f37b d73e 9e4a 2c3e 5a81 6f3e 4aaf d43e
00000130: f039 993f 76a6 673f 6b41 5f3f 8114 883f
00000140: fa77 8a3f 7eb0 373f 9650 6c3f 3d84 3f3f
00000150: c558 2c3f 77cc 183f f448 2f3f 384c 193f
00000160: 6976 2d3f 16c0 763f 964e 163f 89d0 103f
00000170: cf9a 673f 938c 713f 4335 4f3f d3be 513f
00000180: 509a 263f eca3 263f 0cbe 3e3f 7619 643f
0.5295724 0.18121244 0.73995113 0.0075083347 0.76829916 0.45415664 0.4923055 0.7620178
0.48923936 0.49717617 0.48398393 0.7187625 0.3147486 0.50346094 0.3627714 0.5045795
1.2276306 1.267613 1.3085849 1.0829315 0.86136293 0.66347826 0.86092174 0.42643008
0.8866889 0.8881059 0.9819861 0.98213005 0.6299317 0.9234178 0.62595326 0.6911557
0.8482817 0.8932384 0.74638027 0.7481208 1.0 0.7343429 0.90470314 1.0
0.94176567 0.7216834 1.2551873 1.0045421 1.2843686 1.1196331 1.06123 0.93273085
0.7956876 1.1459725 0.74766326 0.80649245 0.9448424 1.2586542 0.9020798 1.4865694
0.62238157 0.8343816 0.6887237 0.48257816 0.5754348 0.7111685 0.7581752 1.0079992
0.7814205 0.539221 0.52637184 0.7625234 1.0200707 0.73906195 0.8040375 0.8386847
0.42086753 0.16825339 0.23389187 0.41539985 1.1970806 0.90488374 0.87209195 1.0631257
1.0817864 0.7175368 0.92310464 0.74811155 0.6732295 0.5968699 0.6847069 0.59881926
0.67758805 0.9638685 0.5871366 0.565682 0.90470594 0.94355124 0.80940646 0.819318
0.6507921 0.65093875 0.7450874 0.8910135

seq.6.bias f4 [100]
00000000: 0d47 2c3e 1d5b 07bd 4252 3cbe 4b47 393e
00000010: 480d 8c3d 331f e73d 0300 cd3d b1e8 733d
00000020: cb87 2c3e e245 df3d 29d4 183e f795 983e
00000030: a4ba d4bd 7d2f 3b3e 1f88 023d 364a a53d
00000040: 73cb dd3e 6984 103f 9fc6 143f a8cd 1d3f
00000050: f9d0 d23d f0e9 cebd 2b1f 2a3e 21d0 d0bd
00000060: e63f cbbd 2aeb d73d ef84 8cbd 8648 403e
00000070: 09ca e13d e842 4fbd 4046 aabd 0974 14be
00000080: df77 fbbe 6f6f f0be 34d6 e4be 1fae bcbe
00000090: bb5a dfbd 321c a4bd 14ca 403e 1e50 453e
000000a0: baf5 f13e 4f0f d73e d34a fa3e 2057 e93e
000000b0: 4571 433f 92a0 f63e 9c3c 0d3f 5655 e33e
000000c0: 960c 79be a1d0 f9be 1a11 39be 7eaf c4be
000000d0: ca13 1c3f 48e2 3c3f 17d9 083f 7a8f 6b3f
000000e0: f2c2 473c 83e2 d6bd e56b 4dbe 02b9 c1ba
000000f0: d157 a93d add4 223e 3fdf 403d 21e0 6d3e
00000100: f140 ff3d 656e c13d 04a3 ad3d 672c 903e
00000110: c021 7abe a3b5 07bd b1c6 92bd 8fb4 9c3d
00000120: 623b 19be fe6e 84bd f201 5e3e c50f 21be
00000130: 679d 6bbf 816c 6ebf b309 20bf 297b 55bf
00000140: cbf4 38be 0d45 353e 6899 9c3d 2d56 473e
00000150: 0612 9a3d 84b2 543c c312 ec3c 5eb6 113e
00000160: 018d 04be 7aa9 823d 1852 213e 4941 ec3d
00000170: 58e4 f5bc e8cd 0d3e 7177 1c3e 6ecb 2b3e
00000180: 7ab4 db3d 6157 a5bc ed8c fdbd 0cb6 abbd
0.16823979 -0.033045877 -0.18390754 0.18093602 0.06838471 0.11285248 0.10009768 0.059548084
0.16848676 0.10902001 0.14924683 0.29801914 -0.103871614 0.18279834 0.031868096 0.08070795
0.43319282 0.5645204 0.5811557 0.6164193 0.102937646 -0.10103214 0.16613452 -0.101959474
-0.09924297 0.10542901 -0.068612926 0.18777665 0.11024863 -0.050600916 -0.083141804 -0.14497389
-0.49114892 -0.46960017 -0.44694674 -0.36851594 -0.10905977 -0.0801319 0.18827087 0.19268844
0.47257787 0.42003867 0.4888521 0.45574284 0.7634471 0.4816938 0.5517061 0.44401044
-0.24321207 -0.48791984 -0.1807293 -0.3841514 0.60967696 0.7378278 0.5345625 0.920158
0.012192475 -0.104924224 -0.2006069 -0.0014779868 0.08268703 0.15901442 0.047087904 0.2323003
0.124635585 0.09444884 0.084783584 0.28158876 -0.24426937 -0.033132207 -0.07166804 0.07651626
-0.14964059 -0.064664826 0.2168043 -0.15728672 -0.9203705 -0.93134314 -0.625148 -0.8339105
-0.18062131 0.17702122 0.076464474 0.19466467 0.07522969 0.012982015 0.02881754 0.14229724
-0.12944414 0.06379981 0.15753973 0.1153589 -0.03001611 0.13848078 0.15279938 0.16776821
0.107277825 -0.020183267 -0.12380395 -0.08384332

seq.6.running_mean f4 [100]
00000000: 0400 0000 0400 0000 0400 0000 0400 0000
00000010: 1301 8c3f 5016 873f 8061 853f 5bc4 733f
00000020: 0859 8540 db42 8c40 5648 8340 bcaf 8d40
00000030: 0400 0000 0400 0000 0400 0000 0400 0000
00000040: 5395 1440 9d2f 1640 ce95 1540 9279 2640
00000050: 0400 0000 0400 0000 0400 0000 0400 0000
00000060: 0400 0000 0400 0000 0400 0000 0400 0000
00000070: 0400 0000 0400 0000 0400 0000 0400 0000
00000080: 2c27 0640 aa3c 0d40 1cac 1340 c78b 1e40
00000090: 0000 0000 0400 0000 0400 0000 0000 0000
000000a0: a7c4 a93f 67c6 bd3f 8a35 aa3f fb94 b83f
000000b0: 0a81 2040 15eb 1640 575f 1240 1a81 0340
000000c0: 9675 9f3f b79c 813f 7d91 913f 1f89 733f
000000d0: e1f3 2a40 2fe7 3840 7448 2c40 40ad 2c40
000000e0: 6da5 933f f329 813f e172 a33f e8ff 8c3f
000000f0: 0400 0000 0400 0000 0400 0000 0400 0000
00000100: ffc3 0b3f 80fa 363f 558d 313f 2b67 743f
00000110: fba4 9f3f d3b2 ab3f 0a14 bc3f 2589 b93f
00000120: 0400 0000 0400 0000 0400 0000 0400 0000
00000130: a295 6641 c869 5e41 d127 6b41 3921 6b41
00000140: 0400 0000 0400 0000 0400 0000 0400 0000
00000150: 0d5a 8e3e 6860 603e 42e9 773e 5782 8b3e
00000160: 0400 0000 0400 0000 0400 0000 0400 0000
00000170: 0400 0000 0400 0000 0400 0000 0400 0000
00000180: 0400 0000 0400 0000 0400 0000 0400 0000
6e-45 6e-45 6e-45 6e-45 1.0937828 1.0553684 1.042038 0.9522149
4.167118 4.383161 4.10258 4.427702 6e-45 6e-45 6e-45 6e-45
2.321614 2.346656 2.3372684 2.60117 6e-45 6e-45 6e-45 6e-45
6e-45 6e-45 6e-45 6e-45 6e-45 6e-45 6e-45 6e-45
2.0961409 2.2068276 2.3073797 2.4772813 0.0 6e-45 6e-45 0.0
1.3263139 1.4826173 1.3297589 1.4420465 2.507876 2.3580983 2.287069 2.0547547
1.2457759 1.012595 1.1372524 0.95131105 2.6711352 2.8891103 2.6919222 2.6980743
1.1534859 1.0090927 1.2769433 1.1015596 6e-45 6e-45 6e-45 6e-45
0.5459594 0.7147598 0.6935628 0.9546992 1.2472223 1.3413948 1.4693615 1.4494978
6e-45 6e-45 6e-45 6e-45 14.411531 13.9008255 14.697221 14.695611
6e-45 6e-45 6e-45 6e-45 0.27803078 0.21911776 0.24210075 0.2724788
6e-45 6e-45 6e-45 6e-45 6e-45 6e-45 6e-45 6e-45
6e-45 6e-45 6e-45 6e-45

seq.6.running_var f4 [100]
00000000: 0400 0000 0400 0000 0400 0000 0400 0000
00000010: eb35 cd3f bc07 da3f 2dc7 d73f 67ac cb3f
00000020: 53f8 7c40 4af3 9b40 9a27 7640 1c84 8840
00000030: 0400 0000 0400 0000 0400 0000 0400 0000
00000040: f12d 1b41 3002 0941 b1fe 0d41 a171 0c41
00000050: 0400 0000 0400 0000 0400 0000 0400 0000
00000060: 0400 0000 0400 0000 0400 0000 0400 0000
00000070: 0400 0000 0400 0000 0400 0000 0400 0000
00000080: 1ee6 5940 97bd 8940 bcae 6440 79b7 8c40
00000090: 0400 0000 0400 0000 0400 0000 0400 0000
000000a0: 94da 7740 827f 8440 ce23 8440 a455 8f40
000000b0: b1f4 2441 9774 1d41 b219 1741 3b13 0741
000000c0: 8cb1 bd3f 90ca ae3f cb49 af3f 9013 a53f
000000d0: 89c0 1641 87fe 1941 0ce2 2241 dcc9 1741
000000e0: 4aaf b23f 68fb b73f 674b ac3f 1dd3 a83f
000000f0: 0400 0000 0400 0000 0400 0000 0400 0000
00000100: 0285 a93f cb38 dc3f d288 d13f ac8b 0540
00000110: 280f c93f 1407 f93f 2bc1 ff3f 55ae 0640
00000120: 0400 0000 0400 0000 0400 0000 0400 0000
00000130: 2a6b a241 b814 a741 4cb3 9041 1022 8841
00000140: 0400 0000 0400 0000 0400 0000 0400 0000
00000150: 6eaa 543f 7d09 2a3f 5780 363f b075 353f
00000160: 0400 0000 0400 0000 0400 0000 0400 0000
00000170: 0400 0000 0400 0000 0400 0000 0400 0000
00000180: 0400 0000 0400 0000 0400 0000 0400 0000
6e-45 6e-45 6e-45 6e-45 1.603208 1.703361 1.6857659 1.5911988
3.9526565 4.8734484 3.846167 4.2661266 6e-45 6e-45 6e-45 6e-45
9.698716 8.563034 8.8746805 8.777741 6e-45 6e-45 6e-45 6e-45
6e-45 6e-45 6e-45 6e-45 6e-45 6e-45 6e-45 6e-45
3.4046702 4.3043933 3.573165 4.3973966 6e-45 6e-45 6e-45 6e-45
3.872716 4.140565 4.1293707 4.479204 10.309739 9.840964 9.443773 8.442195
1.4819808 1.3655567 1.3694395 1.2896595 9.422006 9.62464 10.180187 9.486782
1.3959744 1.4373598 1.3460511 1.3189427 6e-45 6e-45 6e-45 6e-45
1.3243716 1.7204832 1.6369879 2.08665 1.570775 1.9455285 1.9980825 2.1043904
6e-45 6e-45 6e-45 6e-45 20.302326 20.885117 18.087547 17.016632
6e-45 6e-45 6e-45 6e-45 0.83072555 0.6642073 0.7128958 0.708827
6e-45 6e-45 6e-45 6e-45 6e-45 6e-45 6e-45 6e-45
6e-45 6e-45 6e-45 6e-45

fc1.weight f4 [64, 202]
00000000: 987b 6ebd b16e 483f 0d60 093f c095 28bf
00000010: 8d2b a13f 10b9 5bc0 f662 a23e 5bf6 91c0
00000020: a597 52c0 6270 6bc0 4097 edbf 4915 e8bf
00000030: f04e 423e 8c81 dabe 39ec e8be ac6c c9be
00000040: 9843 34bf 7d44 9cbf da23 b8bf 0b55 63be
00000050: 5e36 74be c9d4 423f e926 13bf 9ef6 403f
00000060: c8d3 f73d 1a56 013e 5935 6c3f cead 88be
00000070: 4079 1abf bd02 cc3e 00db 9f3f 26fb 263f
00000080: 5f30 5b40 c68a 3f40 5879 c63f 84fc 7540
00000090: 3429 fc3e dda4 743f 2159 0abf fbdd 98be
000000a0: 0217 8bc0 d817 89c0 ca5d 7ac0 d5c4 4ebf
000000b0: 5420 c2c0 2fa5 4dc0 b8a7 4fc0 f1f3 16c0
000000c0: 1978 aac0 f187 47c0 560a 48c0 0583 12c0
000000d0: 3d43 66c0 246a 3ac0 741a 8ebf 5082 42bf
000000e0: 1210 3f40 2b5f e8bf ef90 3b40 0db2 bbbf
000000f0: 014d 8ebe 7518 6abf 13eb 83be 41d3 28bd
00000100: 576d 813f 85fd f33f 84db 52be 8796 2740
00000110: ae61 46c0 b804 4bbf 6d78 683f 99ac 3340
00000120: 9736 e13e 5004 383f 75c9 f6be 1850 223f
00000130: 1d89 5fbf ac22 8d3f 5130 083e 2496 ea3f
00000140: 7cc0 c83e 6d79 9cbf 8336 343c 8873 b0be
00000150: fb2e 80c0 879b 63c0 8087 5ebe adfc eb3e
00000160: 52fe 7e3e 657b c5be b8de 07bf 6260 b2be
00000170: 57e2 b83e 1e85 90be 412a 0dbf 259b 75bf
00000180: 4ccb 21bf 18bb be3e 4bcd 643f b358 5d3f
00000190: 0c28 24bf 89ed d43f 1e5e 6bbf a99d 49bf
000001a0: cf18 84bf 5cf2 0dc0 7415 d6bf 6d58 a1c0
000001b0: 38f1 a5bf b5eb 44bf 0f57 2fc0 0ad5 2140
000001c0: d6c3 6e40 8d00 a93d 5e48 d6be 61f0 1140
000001d0: bf05 c23f 0adf dd3f 6a04 0440 5070 1c3f
000001e0: 176e b7c0 044d eabe aacf 78be 0376 133e
000001f0: 1dde a13f 9852 ac3f 826d 563f d4b8 2a40
00000200: 7e3e 9440 b7d3 523f 2e99 89c0 b2f9 e9bf
00000210: 442b c6bf 9c4f 053e 12f2 0d40 5994 0e3f
00000220: 582a 0240 7fcb 6040 fc8a 8b40 7d1a 8fbf
00000230: c2c9 9ec0 ffb5 363f a142 e43f 47a4 42bf
00000240: 87d8 983f 6073 04be 27ff 1540 dbe1 5740
00000250: 37cd 0540 f246 d6be ee51 bbbf 432d 31bd
00000260: 1ba0 1940 6109 4c3f d083 103f 3a48 703f
00000270: a1fe 1a40 8ceb 1b40 adea 1240 8413 18c0
00000280: ed6d a7bf a1a2 22bd ee90 cd3f a9e6 153f
00000290: a66d 073f e37c 213f 4a55 ca3f 71ed 3240
000002a0: 7079 2440 eac7 b0bf 4d45 bb3e 413d ad3f
000002b0: a624 a23f c921 14be 9a28 633f 3ec3 2b3f
000002c0: 5aa7 ac3f fb77 753f b8b4 2640 8578 c9bf
000002d0: 2678 6140 fd4e f6be bfc1 ca3f 81a8 1240
000002e0: 7d07 dc3f 00ae c2bd 3fe7 ab3f 4a5c 3f40
000002f0: 1c21 0940 a028 d7bf 8e2c 4740 8538 ac3e
00000300: 6609 fd3e 19b2 583e 1318 e93f 7ded 0a40
00000310: 955b 5e40 e9be 8240 333f 2540 af1e 0ebf
00000320: 517d 143f 0dfa aebe 8ab0 6bbf d4e9 9f3f
00000330: 6ce3 963f eb0e 99bf 9630 683f 5d80 80be
00000340: 1532 74be 4bc5 093f 621d e3bd 6d5f f13e
00000350: 819f 0d40 dde6 be3f 7a7c 983f 3ab5 babf
00000360: 2be0 a4bf b17c 51bf 63c6 193e 9f1c e43e
00000370: e2d9 3cbe fc66 2cbe 14db 64bf d779 953f
00000380: 28cb 82bf f1a4 b23f 7db6 933f f4ec 94bf
00000390: e81d 8f3f dc6a 69bf f588 89bf 0326 b93f
000003a0: 16cb a93f 9955 993f 8c66 03bf 90c0 c5be
000003b0: a488 83be 0893 ca3d 4024 973f e8b5 873f
000003c0: ec67 84bf f228 97bf 8227 183f f359 723e
000003d0: 9b0d 233e 6d6e 233f 92f5 c0be 58a5 97be
000003e0: 01e5 3f3f b816 90bd 9aad 9dbd c4c1 f839
000003f0: 248d 963e 496e 233e 9396 043f 410a 833b
-0.058223337 0.782939 0.53662187 -0.658535 1.2591416 -3.4331703 0.31716126 -4.5613227
-3.2905056 -3.6787343 -1.8561783 -1.8131496 0.18975425 -0.4267696 -0.45492724 -0.39340723
-0.7041564 -1.2208401 -1.4385941 -0.2220041 -0.23848864 0.76105934 -0.5748125 0.7537631
0.12100941 0.12630501 0.922689 -0.26695102 -0.6034126 0.3984584 1.2488708 0.6522697
3.4248273 2.992845 1.5505781 3.8435373 0.49250185 0.9556406 -0.5404225 -0.29856858
-4.3465586 -4.2841606 -3.9119744 -0.8076909 -6.0664463 -3.213207 -3.2446117 -2.358639
-5.3271604 -3.1176722 -3.1256309 -2.2892468 -3.597854 -2.9127283 -1.1101823 -0.7598009
2.9853559 -1.8154043 2.930721 -1.4663712 -0.27793124 -0.9144357 -0.25765285 -0.041217092
1.0111493 1.9061743 -0.20591551 2.6185625 -3.099712 -0.79304075 0.90808755 2.8074095
0.4398696 0.7188158 -0.48200575 0.63403463 -0.87318593 1.1026206 0.13299681 1.8327069
0.39209354 -1.2224556 0.010999325 -0.34463143 -4.005735 -3.5563676 -0.21731377 0.46091214
0.24901703 -0.38570705 -0.53074217 -0.3483916 0.36110184 -0.2822656 -0.551426 -0.95939857
-0.6320083 0.37252116 0.8937575 0.8646347 -0.64123607 1.663499 -0.91940486 -0.78756195
-1.0320071 -2.2179174 -1.6725297 -5.042044 -1.2964239 -0.7692216 -2.7396886 2.5286279
3.7307029 0.08252058 -0.41852087 2.2802966 1.5158004 1.7333691 2.0627694 0.61108875
-5.7321887 -0.45761883 -0.24297968 0.14400487 1.2645909 1.3462706 0.83760846 2.667531
4.6326284 0.823543 -4.2999487 -1.8279326 -1.5481954 0.1301865 2.2178998 0.5569511
2.0338345 3.5124204 4.360716 -1.1179959 -4.9621286 0.71371454 1.7832834 -0.7603192
1.1941079 -0.12934637 2.3436983 3.3731601 2.0906503 -0.41851002 -1.4634378 -0.043256056
2.400397 0.7970181 0.5645113 0.9386021 2.4217913 2.4362516 2.2955735 -2.3761911
-1.3080422 -0.039705876 1.6059854 0.58555084 0.52901685 0.63081187 1.5807278 2.7957423
2.569912 -1.3811009 0.3657631 1.3534318 1.2667434 -0.14466013 0.8873383 0.6709479
1.3488572 0.958862 2.6047802 -1.5739905 3.5229583 -0.48107138 1.5840377 2.2915347
1.7189785 -0.09505844 1.3429946 2.9900079 2.1426458 -1.6809273 3.1120944 0.3363687
0.49421233 0.21161689 1.8210472 2.1707451 3.4743397 4.0858045 2.5819824 -0.5551557
0.5800372 -0.3417515 -0.9206625 1.2493234 1.1788154 -1.1957678 0.90699136 -0.25097933
-0.2384723 0.5381667 -0.11089589 0.47143117 2.2128603 1.4914204 1.1912987 -1.4586556
-1.2880911 -0.8183089 0.15017085 0.44553086 -0.1844249 -0.1683616 -0.89396787 1.1677808
-1.0218248 1.3956586 1.1540066 -1.1634812 1.1181002 -0.9117868 -1.0744921 1.4464725
1.3265102 1.1979247 -0.5132835 -0.38623476 -0.25690186 0.09891325 1.1807938 1.0602388
-1.0344214 -1.180937 0.59435284 0.23667125 0.15923159 0.6384037 -0.37687355 -0.29618335
0.7495881 -0.07035583 -0.076991275 0.00047446613 0.29404557 0.15960039 0.5179226 0.003999025

fc1.bias f4 [64]
00000000: 68e1 d63e 34b4 4541 1425 c33e 4dee 2441
00000010: f067 abc0 03e9 a241 490c aac0 1374 a9bf
00000020: c47e 67c1 935b 66c0 a690 d3bf b422 cac0
00000030: eb47 8f41 e920 0cc1 9dac 91c0 4d33 3341
00000040: 05c8 b7c0 e2df b7c0 952e 86c0 b9ae 3141
00000050: 0144 9d3f 96af 2dc0 7249 02c1 19d7 8b41
00000060: 141f 9cbf dd8b 86c0 9ad1 07c1 7072 cdc0
00000070: 4440 98c0 0120 0ec1 eaac 3140 a32f 87be
00000080: e1c4 d2c0 82ea 693f 7db5 eb40 23d1 3141
00000090: 2630 83c0 2bb6 2cc0 4046 e7c0 ff70 1c41
000000a0: 8a2c 6f40 cadb 4141 58f4 0ac1 7127 ecc0
000000b0: dabb a5c0 5a03 08c1 1848 57bf 05a8 2941
000000c0: fdb3 6741 230c 99c0 10fd 9cbf ac41 ed3f
000000d0: bbe4 cdc0 3097 1ec0 1cd1 29c0 b76c a4c0
000000e0: 9692 89c0 511c 3041 4e8c 18c1 8f07 7041
000000f0: 99ce c0c0 6a46 88c0 19a0 8bc0 537d bd40
0.41968846 12.356495 0.38114226 10.308179 -5.3564377 20.363775 -5.3139997 -1.3238548
-14.468449 -3.5993392 -1.6528518 -6.316736 17.910116 -8.758035 -4.552321 11.200025
-5.7431664 -5.7460794 -4.1931863 11.105157 1.2286378 -2.713842 -8.142931 17.480028
-1.2196984 -4.204573 -8.488672 -6.4202194 -4.757845 -8.882813 2.7761788 -0.2640353
-6.586533 0.91373456 7.3659043 11.113559 -4.0996275 -2.6986187 -7.2273254 9.777587
3.7370934 12.116159 -8.684654 -7.3798146 -5.179181 -8.500818 -0.8409438 10.60352
14.481442 -4.7827315 -1.2264729 1.8535666 -6.434171 -2.4779778 -2.653388 -5.138271
-4.299144 11.006913 -9.534254 15.001845 -6.0252194 -4.2585955 -4.363293 5.9215484

fc2.weight f4 [3, 64]
00000000: 8325 1e3e 68e9 ad3e bd92 d1bc 57f6 993e
00000010: 64e4 2bc0 edb3 0740 c269 85c0 9631 963f
00000020: 06fe 65bf 1eba 9bc0 5c0b 513e eedd 8b3e
00000030: bcd2 8f3f 86d0 d63e 5af9 8dbe c607 8e3e
00000040: 70f7 8cbd 14d5 04c0 594d be3d 22be 913e
00000050: 0a36 51be 6ed6 8fbf 9a10 1a3f a0c1 803f
00000060: 78af 193e c074 a240 daf3 4f3f 5d68 53be
00000070: 7f7b 963f fd93 93c0 7cac 0c3f ae54 ec3d
00000080: 7d11 0f3f b8b4 e93e 0ca2 6b3e 950e b13e
00000090: 1f23 91c0 fe2c bbc0 8126 14bf 6f24 7c3e
000000a0: 8e91 c63c 1dc4 dd3e 0504 86c0 7d16 bbc0
000000b0: 2b58 743f 361f adbd 6385 8c3c d9c4 7a3e
000000c0: d773 523e 5c2e 5dbe 52b0 023e 6fed d93e
000000d0: eaec d3be 9fd6 76bd 7d28 48bf b175 90c0
000000e0: 91ae 9ac0 010a 853e 232f b440 976e 0f3f
000000f0: d6c8 e5be 9666 063f c015 bdc0 8b76 d53b
00000100: 4d29 bbbd a174 713e 6a4e 9a3e e75a 853e
00000110: fc7b 22be 5bea 0f40 b093 4cbd 980d 22c0
00000120: 72f1 5ebf 4e1c e6bd 3a7e b93e b37d 3e3e
00000130: e711 973f 4540 8bc1 770a 5cbd 369b 3c3e
00000140: 2102 a040 753a 3abd 68d8 01bf 3396 9e3e
00000150: fc28 dc3e d18b 8abe 6952 a1c0 918b 143f
00000160: c451 6ec0 d6ca a43d 10b4 c3c0 3a9e c53e
00000170: 2f6b 65c0 8244 b1bf 8063 243f 0226 a13a
00000180: acc8 b3be cff9 17be dfbb 1e3e 750e 9a3e
00000190: 3a85 ca3d 22c8 53ba f9dd 04bf b1a2 7b3e
000001a0: 0e61 993e d40d f23e 5ef6 d33d f106 32bf
000001b0: 350d fb3d c523 a7bd 2da9 473d 7749 963e
000001c0: e38a bb3e 520b fd3e 5011 7fc0 560c 0f3f
000001d0: 1d92 9f40 2fda 6dc0 219f 28bf 21d2 64bc
000001e0: 85d0 123d 1931 553e f0ef 37be 20e9 133f
000001f0: fd7f 07c1 e99c 183f 7003 c63c 4ce5 553e
00000200: 28d9 94c0 82b6 9c3e 3e2d 13c0 a7ae 663e
00000210: d8ea 41c0 322a 1740 2de3 243d 1d16 2640
00000220: 0094 4ebf 1a55 e13c 2e96 633f a44c 86c0
00000230: 057d 3b3f d829 813e fc2c ae40 7f7f 803e
00000240: d239 57be 1528 2b3f cc4f fabe 6712 853e
00000250: be6e d13d 6a11 35c0 c36b 953f 5d77 5d3f
00000260: 5df1 fa3d ab72 ec3d ac22 f9c0 cba8 85be
00000270: 95fa 0ebe fe62 bac0 9b97 093f a7e6 5ac0
00000280: 4402 d33e f690 88bf afb3 b73e 4057 843e
00000290: 767e 523e e5bf 683d f548 0bbf 4f73 3b3e
000002a0: 9fcd 5d3e f47f c13e b24a d13d ddee 75c0
000002b0: ed54 f4c0 117e dc40 c336 6ec0 5687 153e
000002c0: 8897 8e3e d863 983d cd4b 6a3e 1f19 a93e
000002d0: 5d85 01be d8ee 5c3d 8881 32bf 085c 28bf
000002e0: faad 943e 1841 a53e 4daa 20be b10e 283f
000002f0: 102f 1dbe 0c9e 7bbe b6b1 673e 89f1 863e
0.15443997 0.33967137 -0.025582666 0.30070755 -2.6858149 2.1203568 -4.16916 1.1733882
-0.89840734 -4.8664694 0.2041449 0.27317756 1.1236186 0.41955966 -0.27729303 0.27740306
-0.068831325 -2.0755053 0.09292097 0.28465372 -0.2043077 -1.1237314 0.6018158 1.005909
0.15008342 5.0767517 0.8123146 -0.2064528 1.1756438 -4.611815 0.5495069 0.11539589
0.5588606 0.4564569 0.23011035 0.34581438 -4.5355372 -5.849242 -0.5787125 0.24623273
0.024239328 0.43313685 -4.1879907 -5.846495 0.95447034 -0.08453219 0.017153447 0.24489154
0.20552002 -0.21599716 0.12762573 0.4256396 -0.4139169 -0.060263272 -0.7818678 -4.5143666
-4.8338094 0.25984195 5.630754 0.5602812 -0.44879788 0.52500284 -5.908905 0.0065143756
-0.09138737 0.23579647 0.3013795 0.26045915 -0.15867609 2.248679 -0.049945533 -2.5320797
-0.87087166 -0.112358674 0.36229116 0.18602638 1.1802338 -17.406382 -0.053720918 0.18418583
5.00026 -0.045465905 -0.50720835 0.30973968 0.4300002 -0.27059796 -5.04131 0.5802546
-3.7237406 0.080465004 -6.1157303 0.3859728 -3.584667 -1.3849032 0.64214325 0.0012294652
-0.35114038 -0.14841388 0.15501355 0.30089155 0.09888692 -0.00080788333 -0.51901203 0.2457378
0.2995686 0.47276175 0.10349725 -0.6954184 0.122583784 -0.08161119 0.048745323 0.29352924
0.366294 0.494227 -3.9854317 0.558782 4.986586 -3.7164419 -0.6586781 -0.013966114
0.03584339 0.2081951 -0.17962623 0.57777596 -8.468747 0.59614426 0.024171561 0.20888251
-4.6515083 0.30607992 -2.2996364 0.22527562 -3.0299587 2.3619504 0.040255714 2.5950997
-0.8069458 0.0275064 0.8890103 -4.1968555 0.7323764 0.25227237 5.4429913 0.25097272
-0.2101815 0.66858035 -0.48889005 0.25990602 0.102262005 -2.8291879 1.1673511 0.8651026
0.12253068 0.11545309 -7.7854824 -0.2610534 -0.13962777 -5.824584 0.53746957 -3.420328
0.41212666 -1.0669239 0.35879275 0.25847816 0.20556054 0.05682363 -0.544082 0.18305705
0.2166047 0.37792933 0.10219325 -3.842704 -7.635367 6.890389 -3.7220924 0.14602408
0.27849984 0.07440919 0.22880478 0.33026978 -0.1264853 0.053938717 -0.697289 -0.6576543
0.29038984 0.32276225 -0.15689965 0.6564742 -0.15349984 -0.24572009 0.22626385 0.26356152

fc2.bias f4 [3]
00000000: 3e2b 5141 9b2e 5941 6c72 5941
13.073057 13.573878 13.590435
