models/2conv___600.00max__160.68avg____0.00min__1658520478.model (torch, 73406 bytes, 12 tensors)

seq.0.weight f4 [16, 1, 3, 3]
0	0xbf163360	-0.5867214
1	0xc025fecf	-2.5936773
2	0x3ee06c7f	0.43832776
3	0xc017c6ac	-2.371501
4	0x3f8d475d	1.1037403
5	0xbfd2615a	-1.6435959
6	0x3ed2bcd1	0.4115968
7	0xbfed3828	-1.8532763
8	0x3f38094c	0.71889186
9	0xc0427fd6	-3.0390525
10	0x4008e8db	2.1392124
11	0x400d7ddc	2.2108068
12	0x3fce225f	1.6104239
13	0x4009a8e5	2.1509335
14	0xc01e356e	-2.472011
15	0x3f8605e6	1.047055
16	0xbeaeea1f	-0.34162995
17	0xbf14913e	-0.5803412
18	0x3e99f0dd	0.30066577
19	0x3f292d92	0.6608516
20	0xc0688928	-3.6333714
21	0x3e7031d2	0.23456505
22	0x3d214262	0.03936995
23	0xbfffa649	-1.9972621
24	0x3da05340	0.07828379
25	0x3da4b4c5	0.080422916
26	0xbe930a61	-0.28718856
27	0xbdb1399d	-0.08653567
28	0xbf8382b8	-1.0274267
29	0xbffa47d6	-1.9553173
30	0xbf0e3c5b	-0.55560845
31	0xbf66c551	-0.9014483
32	0xbffa93d0	-1.9576359
33	0x3f792fc6	0.9733852
34	0x3fc6c516	1.5528896
35	0x3fe635da	1.7985184
36	0x3f4f9ac3	0.8109552
37	0x3f22f0c8	0.63648653
38	0x3f07da93	0.5306789
39	0x3fbc098a	1.4690411
40	0x3f86adce	1.0521791
41	0x3f51326c	0.8171756
42	0xc082e6ad	-4.0906587
43	0x3fb695ca	1.4264462
44	0x3f04ef92	0.51928055
45	0x3e20c949	0.15701784
46	0xbfc856f4	-1.5651536
47	0x3ec7ce54	0.39024603
48	0xbf743d19	-0.9540573
49	0xc05ab57c	-3.417327
50	0xbfc33543	-1.5250629
51	0x3e70c5be	0.23512933
52	0xbf6eb940	-0.9325142
53	0x3eb237c1	0.34808162
54	0x3eca9e38	0.39573836
55	0xbde3ae76	-0.1111726
56	0xbdd255c0	-0.10270262
57	0x3e926505	0.28592697
58	0x3ea016c8	0.3126738
59	0xbd961cd1	-0.07329715
60	0x3f84b117	1.0366544
61	0xc089484b	-4.290075
62	0xc00c8775	-2.1957676
63	0xbe81e3bf	-0.2536907
64	0xbec25384	-0.37954342
65	0xbe85618a	-0.2605098
66	0xbcb3e2a6	-0.02195866
67	0x3dd87318	0.105688274
68	0xc0028cbb	-2.0398395
69	0x3e8ba27c	0.27272403
70	0x3f2cc77e	0.674919
71	0xc07a0add	-3.906913
72	0x3dc03187	0.093844466
73	0xbf7a0693	-0.9766628
74	0x3e960acd	0.29305115
75	0xbfb322ed	-1.3995034
76	0x3e857905	0.26068893
77	0xbfdfee48	-1.7494593
78	0xbd8c65eb	-0.06855377
79	0xbfe26711	-1.7687703
80	0xbfec8a77	-1.8479756
81	0xc03a6513	-2.912419
82	0xbfb7786a	-1.4333622
83	0xbd226a43	-0.03965212
84	0x3f8a53f5	1.0806872
85	0xbef4d682	-0.47819906
86	0xbd51311a	-0.051072218
87	0x3e9955b6	0.29948205
88	0xbddbb557	-0.10727947
89	0xbe13bf12	-0.14428356
90	0x402b8419	2.6799376
91	0x4040bdf1	3.011593
92	0x4043ca78	3.0592327
93	0x403ca8a8	2.947794
94	0xbf2de371	-0.67925173
95	0x402b370e	2.6752353
96	0x4031626c	2.7716322
97	0x402bc56c	2.6839247
98	0xbff784a2	-1.9337351
99	0x3f97ff2e	1.187475
100	0x3f0c8af7	0.54899544
101	0x3f8505ef	1.0392436
102	0x3f9c234b	1.219827
103	0xc0daa3ad	-6.83248
104	0x3fa8289c	1.3137393
105	0x3f8bc3e0	1.0919151
106	0x3f8264d7	1.0187024
107	0x3f7efe0b	0.9960639
108	0xbd7b5cc1	-0.061367754
109	0xb82bb3b0	-4.0936924e-05
110	0xbdb3dfcd	-0.08782921
111	0xbfb1c6a9	-1.3888751
112	0x3e47c8a0	0.19510126
113	0x3d96b848	0.073593676
114	0xc07fc434	-3.9963503
115	0x3f859bee	1.0438211
116	0x3e48f92c	0.19626302
117	0xbf5cdcc5	-0.8627437
118	0xbf31dfde	-0.6948222
119	0xbee120b8	-0.43970275
120	0xc034c5c1	-2.82457
121	0x3fc21093	1.5161308
122	0xbe19a07f	-0.1500263
123	0x3ffddc4d	1.9832855
124	0x3fa2468e	1.2677782
125	0xbffec430	-1.9903622
126	0x3f3909a9	0.72280365
127	0x3fb1c3b0	1.3887844
128	0xc0810a3a	-4.0324984
129	0x3f0e0ec8	0.55491304
130	0x3f81e6db	1.0148576
131	0x3fc7d7af	1.5612696
132	0x3efa52a7	0.48891184
133	0x3f35ea7f	0.7106094
134	0x3f8804a5	1.0626417
135	0xbe6ceddc	-0.23137611
136	0xc071a4bf	-3.7756803
137	0xc020a725	-2.5102017
138	0xbe16f342	-0.14741233
139	0x3dc4ee20	0.09615731
140	0xbe6e5dce	-0.23277971
141	0x3d3d2bc3	0.046184313
142	0x3ea4ff14	0.3222586
143	0xbd79e21f	-0.06100666

seq.0.bias f4 [16]
0	0xc025b2e3	-2.5890434
1	0xc06a4e6a	-3.661036
2	0xc0527bcd	-3.2888062
3	0xc0420964	-3.0318232
4	0xc069b11b	-3.6514347
5	0xc0417277	-3.0226114
6	0xc08e830e	-4.453498
7	0xc0804ef2	-4.009637
8	0xc01d6650	-2.4593697
9	0xc02aacf4	-2.6668062
10	0xc0816bf4	-4.044428
11	0xc07ef519	-3.9837096
12	0xc06f7de5	-3.742059
13	0xc0265461	-2.5989
14	0xc05f7c56	-3.4919639
15	0xc07bde18	-3.9354305

seq.3.weight f4 [25, 16, 3, 3]
0	0x3d811ac3	0.063039325
1	0xbe5d4c45	-0.21611126
2	0xbe34505f	-0.17608784
3	0x3c8cf26b	0.017205438
4	0xbe2274df	-0.15864895
5	0xbe2ce993	-0.16885976
6	0xbde228ad	-0.110429145
7	0xbdcff907	-0.1015492
8	0xbdeed6f0	-0.1166209
9	0xbc8004ef	-0.015627353
10	0xbeecdead	-0.46263638
11	0x3dbb4761	0.09144474
12	0x3c7c9527	0.01541642
13	0xbda1b967	-0.07896691
14	0xbe6c0378	-0.23048198
15	0x3d06ffdb	0.032958847
16	0xbdca3176	-0.09872715
17	0xbdc96cca	-0.09835203
18	0xbeeae0d9	-0.4587467
19	0xbecd71c5	-0.40125862
20	0xbd3a74fd	-0.045521725
21	0xbdf5e7ab	-0.12007078
22	0xbe7d62cc	-0.2474472
23	0xbf1f1ce0	-0.62153435
24	0xbd3dcdb0	-0.046338737
25	0xbdcc1642	-0.09965183
26	0xbbf6cf9a	-0.0075320723
27	0xbe34ed3d	-0.17668624
28	0xbf245eb0	-0.6420698
29	0xbfb6cdc5	-1.4281546
30	0x3d0d3334	0.03447266
31	0xbe083310	-0.13300729
32	0xbe03b414	-0.12861663
33	0xbd89ca4c	-0.06728038
34	0xbd48d826	-0.04903426
35	0xbcdb658c	-0.02678182
36	0xbd7a1c79	-0.06106231
37	0xbf180786	-0.5938648
38	0xbe84da6e	-0.259479
39	0xbcadafb1	-0.02120194
40	0xbe8b6138	-0.2722261
41	0xbe4f7606	-0.20259866
42	0xbd8c8b15	-0.06862465
43	0xbdbd6b08	-0.0924893
44	0xbe3516fc	-0.17684549
45	0xbd93d52e	-0.07218395
46	0xbf0e0a43	-0.5548441
47	0xbf5ddc59	-0.8666435
48	0xbe14b39e	-0.14521644
49	0x3d60d4d0	0.054890454
50	0xbea5bc13	-0.32370052
51	0x3cb1ddd6	0.021712225
52	0xbdadaf1e	-0.084806666
53	0x3bb35d7c	0.0054737907
54	0xbc922818	-0.017841384
55	0xbe96c609	-0.29447964
56	0x3d3d0953	0.04615147
57	0xbc7f5ce6	-0.015586114
58	0xbd814934	-0.063127905
59	0x39490272	0.00019169765
60	0x3cba89de	0.022770818
61	0xbd9ec949	-0.07753236
62	0xbcde40e9	-0.027130561
63	0xbe47d24a	-0.19513813
64	0x3b57aa92	0.0032908064
65	0xbedbaf18	-0.42907023
66	0xbd17bc37	-0.03704473
67	0xbd6d7221	-0.05797017
68	0x3df1b10d	0.11801348
69	0x3d192c1f	0.037395593
70	0xbde12f64	-0.10995367
71	0xbe028e5e	-0.12749621
72	0xbf2e03d0	-0.6797457
73	0xbf27a6d0	-0.6548891
74	0x3dbadeae	0.09124504
75	0x3cf25f96	0.029586595
76	0xbd170f73	-0.036879968
77	0xbe1e4114	-0.15454513
78	0xbd409ec8	-0.047026426
79	0x3d650708	0.05591491
80	0xbe0eab85	-0.13932617
81	0xbdb09f08	-0.08624083
82	0xbe8d011d	-0.27539912
83	0xbf9759b3	-1.1824249
84	0xbca7cc69	-0.020483213
85	0x3c14874a	0.009065459
86	0xbe40d7b6	-0.18832287
87	0xbdd7bca7	-0.105340295
88	0x3c82e68c	0.015979074
89	0x3dd8fd12	0.10595144
90	0x3c9b5cd5	0.018965164
91	0xbd702d77	-0.05863711
92	0x3e7ad693	0.24495916
93	0xbe0f8109	-0.14014067
94	0xbb911ef7	-0.00442874
95	0x3e99076b	0.29888472
96	0xbe839095	-0.25696245
97	0xbeafa187	-0.34302923
98	0xbdd0b78b	-0.10191258
99	0xbdfab27b	-0.12241074
100	0x3e467188	0.19379246
101	0xbc13ccda	-0.009021008
102	0x3d45cd4a	0.048291482
103	0x3b3ae41f	0.0028517318
104	0xbc632e17	-0.013865969
105	0x3d31219a	0.043244936
106	0x3d372fb3	0.044723224
107	0xbdd089d0	-0.10182536
108	0xbc863169	-0.016380982
109	0xbe244361	-0.16041328
110	0x3dd9be34	0.106319815
111	0xbd338d4e	-0.04383593
112	0xbcb5b629	-0.022181587
113	0xbd80e389	-0.06293399
114	0x3d7436f9	0.05962274
115	0xbdf8a1ad	-0.12140212
116	0xbd062e60	-0.03275907
117	0xbeef2c3b	-0.46713433
118	0xbf4b67ab	-0.7945506
119	0xbf1804c0	-0.5938225
120	0xbd24ddb4	-0.040250495
121	0xbf3265ac	-0.6968639
122	0xbe12a15b	-0.14319365
123	0xbd1d3cbc	-0.038388
124	0xbe4b000c	-0.19824237
125	0xbea95922	-0.33075815
126	0xbe046f17	-0.12933002
127	0x3ef900f5	0.48633543
128	0x3ea5112b	0.3223966
129	0xbdcc7268	-0.09982759
130	0xbe4d17ba	-0.20028582
131	0xbd89d079	-0.06729216
132	0x3d176d9b	0.036969762
133	0xbd994b70	-0.07485092
134	0xbe35586f	-0.17709516
135	0xbf313d0b	-0.6923377
136	0xbef0205e	-0.46899694
137	0xbf378046	-0.71680105
138	0x3ebc6742	0.3679753
139	0xbd9070ea	-0.07052787
140	0x3da3d5af	0.07999741
141	0xbd928e02	-0.07155992
142	0xbddeb788	-0.108748496
143	0xbe22b165	-0.15887983
144	0x3ffa89a1	1.9573251
145	0x3fa5d1b0	1.2954617
146	0x3f8a5502	1.0807192
147	0xbff88c6a	-1.9417851
148	0x3f872e92	1.0561087
149	0x3edf5cfc	0.4362563
150	0x40272677	2.6117227
151	0x3f94edc4	1.163506
152	0x3fbf72ce	1.4956911
153	0x4094e974	4.6534977
154	0x404ac941	3.1685336
155	0x40894da7	4.290729
156	0x3f15e447	0.5855145
157	0x4001cdd3	2.0281875
158	0x40240320	2.5626907
159	0x4027ba59	2.6207488
160	0x405dc085	3.4648755
161	0x3fd0d203	1.631409
162	0x3f31903f	0.6936073
163	0x3dcf19f0	0.10112369
164	0x400d2498	2.2053585
165	0xbdd8eb1d	-0.10591719
166	0xbf3377de	-0.7010478
167	0x3fd0fbed	1.6326882
168	0x3fc7fc1f	1.5623816
169	0xc01cd569	-2.4505255
170	0x405d4fe4	3.4580011
171	0xbfad05f6	-1.3517444
172	0xbf7e4577	-0.99324745
173	0x3e9bc84d	0.30426255
174	0x3f1ea66e	0.619727
175	0x3fb9c422	1.451298
176	0x3f7fa3e8	0.99859476
177	0x3f1e3b21	0.61808974
178	0xbf977ddb	-1.1835283
179	0xbf435a10	-0.763093
180	0x40b16dee	5.544669
181	0x401aaa6d	2.416652
182	0x40607697	3.5072381
183	0x405bca90	3.4342384
184	0x3fd3c680	1.6544952
185	0x4098dc0e	4.776862
186	0x408422d6	4.1292524
187	0x401601f1	2.3438685
188	0x40380bb0	2.8757133
189	0x3fcbdad3	1.5926155
190	0x3fc54db4	1.5414338
191	0xc01612c3	-2.3448951
192	0xc028d1cd	-2.6378052
193	0xbe899ce7	-0.2687752
194	0xbf152a55	-0.5826772
195	0x3e4adf81	0.19811822
196	0x3eac544e	0.3365807
197	0x3f20269a	0.625589
198	0xbf0c5a0d	-0.54824907
199	0xbdfdedb2	-0.123988524
200	0xc0abce1c	-5.36891
201	0x400b934b	2.180865
202	0x3efea264	0.4973327
203	0x3eaa1191	0.33216527
204	0xbece14d7	-0.40250275
205	0xbfe9b4dc	-1.8258319
206	0xc0d58602	-6.6726084
207	0xc193a1f4	-18.454079
208	0xc0c7909e	-6.2364035
209	0xc0da5e89	-6.82404
210	0xc0a1e68d	-5.0593934
211	0xc07455e9	-3.8177435
212	0xc0fdbde0	-7.929428
213	0xc0b9d9cf	-5.807838
214	0xc0eb8cd7	-7.3609424
215	0xc1108a05	-9.033696
216	0xbec511f1	-0.3849025
217	0xbfec4f03	-1.8461612
218	0x3ffa9e4e	1.9579561
219	0xbeeedc0a	-0.4665225
220	0x3e8f4297	0.27980492
221	0x3ee4a6e3	0.44658574
222	0xbdbf54cc	-0.093423456
223	0xbf8f71bf	-1.1206588
224	0x403cbc13	2.9489791
225	0xbf9d1c04	-1.2274175
226	0x40374d9c	2.864112
227	0x3f367632	0.712741
228	0xbde2d2f8	-0.11075395
229	0x3ec9b350	0.39394617
230	0xbf040477	-0.5156931
231	0xc082869f	-4.0789332
232	0xc009f614	-2.1556444
233	0xbf4a77a7	-0.79088825
234	0x3ff5b4e5	1.919583
235	0x3f8d0325	1.1016585
236	0x406822f9	3.6271346
237	0x4083fc91	4.124581
238	0x40864b0f	4.1966624
239	0x405ff5de	3.4993815
240	0x4083877e	4.1102896
241	0x406923e4	3.6428156
242	0x40c4f966	6.155444
243	0x3f023f0b	0.50877446
244	0xbe104316	-0.14088091
245	0xbf1abddd	-0.6044596
246	0x3e9b4dd0	0.30332804
247	0x3e83f00c	0.2576908
248	0xbe07f0af	-0.13275407
249	0xbec5bc38	-0.38620162
250	0xbf323453	-0.6961109
251	0xbfd5a823	-1.6691936
252	0xbfc48cd8	-1.5355482
253	0x4016202c	2.3457136
254	0xbf083e20	-0.53219795
255	0x3f110616	0.5664991

seq.3.bias f4 [25]
0	0xbf88e727	-1.0695542
1	0x3f6e88bc	0.9317739
2	0x4074bd26	3.8240447
3	0xbf1df60f	-0.6170358
4	0x3f4d2970	0.80141354
5	0xbf067bc2	-0.5253259
6	0xbe562348	-0.20911896
7	0xbec67453	-0.38760623
8	0x407150fb	3.7705677
9	0xbea52343	-0.32253465
10	0x3e97ec09	0.29672268
11	0x3fb83f60	1.439434
12	0x3fe5a05f	1.7939566
13	0x3faf0847	1.3674401
14	0x3fb8c913	1.4436363
15	0xbebbc431	-0.3667312
16	0x3eda092e	0.4258513
17	0x3fccbd4f	1.5995272
18	0xbf9d6d32	-1.2298949
19	0x41948bcc	18.56826
20	0xbf0e698b	-0.55629796
21	0xc0767e8c	-3.8514738
22	0xbebba018	-0.3664558
23	0xbecc2071	-0.398685
24	0xbee82236	-0.453386

seq.6.weight f4 [100]
0	0x3f07920f	0.5295724
1	0x3e398fc1	0.18121244
2	0x3f250920	0.6446705
3	0x3bf6087a	0.0075083347
4	0x3f571eed	0.84031564
5	0x3f1dc6a9	0.61631256
6	0x3f1fb140	0.6237984
7	0x3f4a3ecf	0.7900209
8	0x3ef43249	0.47694615
9	0x3f11c7cd	0.56945497
10	0x3f20991a	0.62733614
11	0x3f09504a	0.53638136
12	0x3ec6e93c	0.3884982
13	0x3ef4c186	0.47803897
14	0xbc67250d	-0.014107955
15	0x3ea8515c	0.32874572
16	0x3f8df118	1.1089201
17	0x3f7d64b7	0.98981804
18	0x3f9b55aa	1.2135518
19	0x3fa34160	1.2754326
20	0x3f5c8248	0.86136293
21	0x3f117455	0.56818134
22	0x3f43fffe	0.7656249
23	0x3eda54be	0.42642778
24	0x3f62fe0b	0.8866889
25	0x3f635ae9	0.8881059
26	0x3f7b6371	0.9819861
27	0x3f7b6ce0	0.98213005
28	0x3f214334	0.6299317
29	0x3f6c651c	0.9234178
30	0x3f203e79	0.62595326
31	0x3f30ef94	0.6911557
32	0x3f5f6473	0.8726265
33	0x3f5b0e92	0.8556911
34	0x3f3a6013	0.7280285
35	0x3f5bc675	0.85849696
36	0x3f800000	1.0
37	0x3f3bfde5	0.7343429
38	0x3f679aa0	0.90470314
39	0x3f800000	1.0
40	0x3f4c78ca	0.7987181
41	0x3f4a3407	0.7898564
42	0x3f51dc56	0.8197683
43	0x3f867a34	1.0506043
44	0x3fa37d08	1.2772532
45	0x3f58f7ee	0.8475331
46	0x3f9654ba	1.1744606
47	0x3f9536fd	1.1657406
48	0x3f53b00b	0.82690495
49	0x3f371de1	0.71529967
50	0x3f10849f	0.56452364
51	0x3f3941b1	0.7236586
52	0x3f681451	0.90656
53	0x3f98a693	1.1925834
54	0x3f8f18e5	1.1179472
55	0x3fbe6fb7	1.4877843
56	0x3f28826d	0.65824014
57	0x3f6ec7a0	0.93273354
58	0x3f2494af	0.64289373
59	0x3eb154c8	0.34634995
60	0x3f134fb2	0.5754348
61	0x3f360f24	0.7111685
62	0x3f4217c5	0.7581752
63	0x3f81061e	1.0079992
64	0x3f61505b	0.8801324
65	0x3f30e67d	0.691017
66	0x3f1a3d59	0.6024986
67	0x3f67ae3b	0.9050023
68	0x3f4c5d1a	0.7982956
69	0x3f1b3e05	0.6064151
70	0x3f477bf0	0.7792349
71	0x3f297130	0.66188335
72	0x3ed77bf3	0.42086753
73	0x3e2c4a9e	0.16825339
74	0x3e6f815a	0.23389187
75	0x3ed4af4a	0.41539985
76	0x3fa56e21	1.2924234
77	0x3f968a1a	1.1760895
78	0x3f72b07c	0.94800544
79	0x3f736d05	0.95088226
80	0x3f7c8a9e	0.98649013
81	0x3f5adf48	0.8549695
82	0x3f6c5096	0.92310464
83	0x3f271ef3	0.652816
84	0x3f5d718d	0.8650139
85	0x3f5b0e12	0.85568345
86	0x3f0ce4af	0.55036443
87	0x3ee88fc2	0.45422179
88	0x3f2d7669	0.67758805
89	0x3f76c016	0.9638685
90	0x3f164e96	0.5871366
91	0x3f10d089	0.565682
92	0x3f679acf	0.90470594
93	0x3f718c93	0.94355124
94	0x3f4f3543	0.80940646
95	0x3f51bed3	0.819318
96	0x3f269a50	0.6507921
97	0x3f26a3ec	0.65093875
98	0x3f3ebe0c	0.7450874
99	0x3f641976	0.8910135

seq.6.bias f4 [100]
0	0x3d651b5d	0.0559343
1	0xbdbf965f	-0.09354853
2	0xbd5cdae3	-0.053919684
3	0x3e2a68cf	0.16641544
4	0x3e08fb31	0.13377072
5	0xbcd2e816	-0.025745433
6	0x3e09c959	0.13455714
7	0x3defffdf	0.117187254
8	0x3e00b42c	0.1256873
9	0x3e2f0fab	0.1709582
10	0x3e64bad0	0.22336888
11	0x3e515341	0.20441915
12	0xbe0f0472	-0.1396654
13	0x3e0c70d0	0.1371491
14	0x3d1fc8fd	0.039010037
15	0x3e234319	0.15943564
16	0x3f045bb0	0.51702404
17	0x3ec1f688	0.378834
18	0x3f09a7e4	0.53771806
19	0x3f244ef5	0.6418298
20	0x3df9b4e3	0.121927045
21	0xbe3a2084	-0.18176466
22	0x3e2769f7	0.16349016
23	0xbe190b46	-0.14945707
24	0xbdda68f6	-0.10664551
25	0x3dcb0730	0.0991348
26	0xbdc99d8c	-0.09844503
27	0x3db8dcc3	0.09026482
28	0x3db3f2e8	0.08786565
29	0xbe5255b2	-0.20540503
30	0xbe1a203b	-0.15051357
31	0xbd9178fc	-0.07103154
32	0xbeab9f2a	-0.3351987
33	0xbedbc549	-0.42923954
34	0xbe973e9c	-0.29539955
35	0xbeedefbb	-0.46471962
36	0xbda778ea	-0.081773594
37	0xbd189c83	-0.037258636
38	0x3e0d0263	0.13770442
39	0x3e2e53cd	0.17024155
40	0x3ec079e5	0.37592998
41	0x3ebd6818	0.3699348
42	0x3eae647e	0.34061044
43	0x3f06aab3	0.52604216
44	0x3f1e883c	0.6192663
45	0x3ea027d2	0.3128038
46	0x3f0156c7	0.50523037
47	0x3ef18c61	0.47177413
48	0xbe913dd8	-0.28367496
49	0xbeb9bb0a	-0.36275512
50	0xbe94cf21	-0.29064277
51	0xbe96c456	-0.29446667
52	0x3eda536b	0.42641768
53	0x3f358b4f	0.70915693
54	0x3f1188c0	0.5684929
55	0x3f623991	0.8836909
56	0x3d70ad46	0.058758996
57	0xbe54b30c	-0.20771426
58	0xbe1edb23	-0.15513282
59	0xbbc2c5db	-0.0059439964
60	0x3d82eacf	0.063924424
61	0x3e178c16	0.14799532
62	0x3da4d0c8	0.08047634
63	0x3d16328d	0.036669303
64	0x3e56e9d2	0.20987633
65	0x3e83f5f4	0.25773585
66	0x3df2e3fc	0.11859891
67	0x3ecb2cc9	0.39682606
68	0xbd7ed45f	-0.06221425
69	0xbba83c12	-0.005134114
70	0x3d4b8ae3	0.049693
71	0x3da1f3ab	0.07907804
72	0xbdfd0b03	-0.12355616
73	0xbe23a839	-0.1598214
74	0x3de13e1e	0.10998176
75	0xbd99b0ae	-0.07504402
76	0xbf92202b	-1.1416067
77	0xbf858b32	-1.0433104
78	0xbf2b1f46	-0.66844594
79	0xbf3f3319	-0.74687344
80	0xbe4f153b	-0.20222943
81	0x3d33d53c	0.043904528
82	0x3dfa8ae6	0.12233524
83	0x3d2c7833	0.04210682
84	0x3d76e62f	0.060278114
85	0xbc64418b	-0.013931642
86	0x3e149d81	0.14513208
87	0x3d12baed	0.035822798
88	0xbdea85a6	-0.11451273
89	0x3deffa2b	0.11717638
90	0x3e1d8c69	0.15385593
91	0x3e07723a	0.13227168
92	0xbe0e88d0	-0.13919377
93	0x3d475d49	0.048672948
94	0x3e007903	0.12546162
95	0x3e13a3ea	0.14417997
96	0x3dc7ede7	0.09762173
97	0xbe285b8b	-0.16441171
98	0xbdbc5e62	-0.091976896
99	0xbdc0ae1e	-0.0940821

seq.6.running_mean f4 [100]
0	0x00000004	6e-45
1	0x00000004	6e-45
2	0x00000004	6e-45
3	0x00000004	6e-45
4	0x3fb1bca0	1.3885689
5	0x3fa419b2	1.2820342
6	0x3facf407	1.3511971
7	0x3fa5fbd4	1.2967477
8	0x40a3bfbc	5.117155
9	0x40a99903	5.299928
10	0x40a332a3	5.0999312
11	0x40aa316d	5.3185334
12	0x00000004	6e-45
13	0x00000004	6e-45
14	0x00000004	6e-45
15	0x00000004	6e-45
16	0x4010cf17	2.2626398
17	0x4029279b	2.6430423
18	0x40168bce	2.352283
19	0x403771a8	2.866312
20	0x00000004	6e-45
21	0x00000004	6e-45
22	0x00000004	6e-45
23	0x00000004	6e-45
24	0x00000004	6e-45
25	0x00000004	6e-45
26	0x00000004	6e-45
27	0x00000004	6e-45
28	0x00000004	6e-45
29	0x00000004	6e-45
30	0x00000004	6e-45
31	0x00000004	6e-45
32	0x40151e79	2.329985
33	0x402187f3	2.5239227
34	0x402d8ac3	2.7115943
35	0x403c0a85	2.938142
36	0x00000000	0.0
37	0x00000004	6e-45
38	0x00000004	6e-45
39	0x00000000	0.0
40	0x3fac0255	1.3438212
41	0x3fbdc944	1.4827046
42	0x3f929287	1.1450967
43	0x3fae9234	1.3638368
44	0x4052a17e	3.2911067
45	0x404d6a03	3.2095954
46	0x403b58d8	2.9272976
47	0x40355a41	2.8336337
48	0x3fcb8e86	1.590287
49	0x3fa4efe9	1.2885715
50	0x3fae4334	1.3614259
51	0x3f8848da	1.0647233
52	0x40525b03	3.286805
53	0x4066d76a	3.6068978
54	0x4052a3c0	3.2912445
55	0x4056a4d6	3.3538108
56	0x3f74c339	0.95610386
57	0x3f54390f	0.82899565
58	0x3f87196b	1.0554632
59	0x3f6a99c9	0.9164091
60	0x00000004	6e-45
61	0x00000004	6e-45
62	0x00000004	6e-45
63	0x00000004	6e-45
64	0x3f55389a	0.8328949
65	0x3f8bfe0a	1.0936902
66	0x3f75a6f6	0.9595789
67	0x3fca8592	1.5822012
68	0x3fa7edbc	1.3119426
69	0x3fb05bad	1.3777977
70	0x3fd89d57	1.6923016
71	0x3fd651eb	1.6743749
72	0x00000004	6e-45
73	0x00000004	6e-45
74	0x00000004	6e-45
75	0x00000004	6e-45
76	0x41821fa8	16.265457
77	0x4178c07b	15.546992
78	0x4182b2fb	16.337393
79	0x417f5ba8	15.959877
80	0x00000004	6e-45
81	0x00000004	6e-45
82	0x00000004	6e-45
83	0x00000004	6e-45
84	0x3e962775	0.29326978
85	0x3e83a709	0.25713375
86	0x3e9583a9	0.2920201
87	0x3e9d314f	0.30701682
88	0x00000004	6e-45
89	0x00000004	6e-45
90	0x00000004	6e-45
91	0x00000004	6e-45
92	0x00000004	6e-45
93	0x00000004	6e-45
94	0x00000004	6e-45
95	0x00000004	6e-45
96	0x00000004	6e-45
97	0x00000004	6e-45
98	0x00000004	6e-45
99	0x00000004	6e-45

seq.6.running_var f4 [100]
0	0x00000004	6e-45
1	0x00000004	6e-45
2	0x00000004	6e-45
3	0x00000004	6e-45
4	0x403ee35c	2.982627
5	0x40342f0a	2.815371
6	0x40267b7e	2.6012874
7	0x403e725b	2.9757297
8	0x40e2adce	7.0837164
9	0x40f210ca	7.5645494
10	0x40dc7c3c	6.8901653
11	0x40e13852	7.038125
12	0x00000004	6e-45
13	0x00000004	6e-45
14	0x00000004	6e-45
15	0x00000004	6e-45
16	0x4105c7f0	8.361313
17	0x412e19a4	10.88126
18	0x410fb45b	8.981532
19	0x41229dd7	10.163535
20	0x00000004	6e-45
21	0x00000004	6e-45
22	0x00000004	6e-45
23	0x00000004	6e-45
24	0x00000004	6e-45
25	0x00000004	6e-45
26	0x00000004	6e-45
27	0x00000004	6e-45
28	0x00000004	6e-45
29	0x00000004	6e-45
30	0x00000004	6e-45
31	0x00000004	6e-45
32	0x407617e8	3.8452091
33	0x40a6cd3b	5.2125525
34	0x408f5d81	4.480164
35	0x40b122a7	5.53548
36	0x00000004	6e-45
37	0x00000004	6e-45
38	0x00000004	6e-45
39	0x00000004	6e-45
40	0x4089fe7a	4.312314
41	0x409b7bd5	4.858866
42	0x40729222	3.7901692
43	0x4090a403	4.520021
44	0x41781baf	15.506759
45	0x417a614e	15.648756
46	0x4150cb27	13.049598
47	0x415d6565	13.837255
48	0x401592e0	2.3370895
49	0x3fff441e	1.9942663
50	0x3fddcca4	1.7328076
51	0x3fcefd5e	1.6171072
52	0x41478e7a	12.472284
53	0x415754c0	13.458191
54	0x41517985	13.092168
55	0x414ccf73	12.800647
56	0x3f9ab442	1.208626
57	0x3f9520fc	1.1650691
58	0x3f950b84	1.1644139
59	0x3fa363ac	1.2764792
60	0x00000004	6e-45
61	0x00000004	6e-45
62	0x00000004	6e-45
63	0x00000004	6e-45
64	0x40128f50	2.289997
65	0x4054b7d0	3.323719
66	0x40372f38	2.862257
67	0x40a190b2	5.048913
68	0x3ff388e7	1.9026154
69	0x40150eb1	2.3290217
70	0x40315fbe	2.7714686
71	0x40319e08	2.7752705
72	0x00000004	6e-45
73	0x00000004	6e-45
74	0x00000004	6e-45
75	0x00000004	6e-45
76	0x41ba4514	23.28373
77	0x41b69e27	22.827223
78	0x41a962b5	21.173197
79	0x41b18888	22.191666
80	0x00000004	6e-45
81	0x00000004	6e-45
82	0x00000004	6e-45
83	0x00000004	6e-45
84	0x3f6890eb	0.9084613
85	0x3f642a60	0.8912716
86	0x3f8674f1	1.0504438
87	0x3f8c8788	1.0978861
88	0x00000004	6e-45
89	0x00000004	6e-45
90	0x00000004	6e-45
91	0x00000004	6e-45
92	0x00000004	6e-45
93	0x00000004	6e-45
94	0x00000004	6e-45
95	0x00000004	6e-45
96	0x00000004	6e-45
97	0x00000004	6e-45
98	0x00000004	6e-45
99	0x00000004	6e-45

fc1.weight f4 [64, 202]
0	0xbd810d41	-0.06301356
1	0x3f4c8963	0.79897135
2	0x3ece1467	0.4024994
3	0xbebfe250	-0.3747735
4	0x3fd5ad70	1.6693554
5	0xc039854b	-2.8987606
6	0x3f883ed5	1.0644175
7	0xc0a2c1f7	-5.0861773
8	0xc062fd67	-3.5467165
9	0xc05716c2	-3.360764
10	0xbf557cc0	-0.8339348
11	0xc003d557	-2.0598962
12	0x3e96bf97	0.29443046
13	0xbea73618	-0.32658458
14	0xbf13f2e6	-0.5779251
15	0xbeb77ba7	-0.35836527
16	0xbf5b37cb	-0.8563201
17	0xbf531100	-0.82447815
18	0xbfa6e64e	-1.3039033
19	0xbf39780b	-0.72448796
20	0xbe8a4cf1	-0.27011827
21	0x3f15dd54	0.58540845
22	0xbf25380f	-0.64538664
23	0x3ebcfc53	0.36911258
24	0xbb5c75d6	-0.0033639572
25	0xbec7fd47	-0.39060423
26	0x3f41fded	0.75778085
27	0xbee26f6d	-0.44225636
28	0xbf14dc93	-0.5814907
29	0x3f2fe34c	0.687062
30	0x3f8d9ab0	1.1062832
31	0x3f369c48	0.71332216
32	0x40696586	3.6468215
33	0x40624626	3.5355315
34	0x3fe03ffd	1.7519528
35	0x4068197e	3.626556
36	0x3f1eca2c	0.6202724
37	0x3f74acec	0.9557636
38	0xbee18c29	-0.44052246
39	0xbf1a6400	-0.6030884
40	0xc09b181e	-4.846694
41	0xc06793c2	-3.6183934
42	0xc0845d44	-4.136385
43	0xbf948636	-1.1603458
44	0xc08b7031	-4.3574452
45	0xc0626dab	-3.5379436
46	0xc07ded25	-3.9675992
47	0xc0392452	-2.8928418
48	0xc0b5abe4	-5.6772327
49	0xc04b5263	-3.1769035
50	0xc041215a	-3.0176606
51	0xc0343489	-2.8157065
52	0xc0b5c70d	-5.680548
53	0xc063b7d9	-3.5580962
54	0xbfa57457	-1.2926129
55	0xbf5d205e	-0.86377513
56	0x4003854a	2.0550103
57	0xbffc4f73	-1.9711746
58	0x4066e61d	3.607795
59	0xbf6630d1	-0.8991824
60	0xbe935a4f	-0.28779837
61	0xbf62e2b3	-0.88627166
62	0xbeb8dfc3	-0.36108217
63	0xbe2585a6	-0.16164264
64	0x3f378cbc	0.7169912
65	0x40487f52	3.132771
66	0xbf08ddaa	-0.5346323
67	0x402fae75	2.745023
68	0xc03a6f77	-2.9130533
69	0xbf923f20	-1.1425514
70	0xbd379198	-0.044816583
71	0x40585233	3.380017
72	0x3f1b9319	0.6077133
73	0x3f1e45a0	0.6182499
74	0xbeab399c	-0.3344239
75	0x3f19b789	0.6004568
76	0xbf4ca0a1	-0.799326
77	0x3ff5332c	1.9156241
78	0x3df0c078	0.117554605
79	0x3fd327b6	1.6496494
80	0x3ee87093	0.45398387
81	0xbf905d87	-1.1278542
82	0xbe4da324	-0.20081764
83	0xbeb94081	-0.36182025
84	0xc0841317	-4.1273303
85	0xc0834e3e	-4.103301
86	0xbfb8ffd6	-1.4453075
87	0x3ee3eaf6	0.44515198
88	0x3e170273	0.14747028
89	0xbe220198	-0.1582092
90	0x3c53f0ac	0.012935799
91	0xbd9aef2f	-0.07565152
92	0x3e9a8533	0.30179748
93	0xbf122409	-0.57086235
94	0xbe331a6b	-0.17490546
95	0xbf56f500	-0.8396759
96	0xbf23e002	-0.64013684
97	0x3f4e5c53	0.80609626
98	0x3efeec62	0.4978972
99	0x3ec0c68b	0.37651476
100	0xbfc3c7cf	-1.5295352
101	0xbec948dd	-0.39313403
102	0xbe3946b7	-0.18093382
103	0x3f826132	1.0185912
104	0x3d8224d6	0.06354682
105	0xbffc4b80	-1.9710541
106	0xbe877c8f	-0.26462218
107	0xc08449b9	-4.1339993
108	0xc00a3888	-2.1597004
109	0x3ea4d1c4	0.32191288
110	0xc019cd6e	-2.4031634
111	0x3f8deca5	1.1087843
112	0x4023ad02	2.5574346
113	0x3fdc045d	1.7188832
114	0x3eb64ae4	0.35604012
115	0x3fa3e417	1.2803982
116	0x400e5686	2.224031
117	0x400c73f5	2.1945775
118	0x403d8e0c	2.9617949
119	0x3f24664b	0.64218587
120	0xc0730173	-3.7969635
121	0x40042591	2.0647929
122	0xbdf4e702	-0.11958124
123	0x3f00aacc	0.50260615
124	0xbed0c951	-0.40778592
125	0xbe80dc65	-0.25168148
126	0x3ff13e4e	1.8847139
127	0x40226bb6	2.5378242
128	0x40852fae	4.1620703
129	0x3ed0abd7	0.40756103
130	0xc095fa51	-4.686806
131	0xc0104696	-2.2543082
132	0xc00889da	-2.1334138
133	0x3fb4f181	1.4136201
134	0x401ce280	2.4513245
135	0x3e00907a	0.12555113
136	0x3fd146d5	1.6349741
137	0x403a53fe	2.9113765
138	0x403090f3	2.758847
139	0xbf8951de	-1.0728109
140	0xc086f755	-4.217692
141	0xbf320138	-0.6953311
142	0x3fc2bfda	1.5214798
143	0xbd5110d6	-0.051041447
144	0xbd89ca0f	-0.06727993
145	0x3e958071	0.29199556
146	0x3fa8c111	1.3183919
147	0x400953cc	2.1457396
148	0x401744ed	2.363582
149	0xbf6756e0	-0.90366936
150	0xbdf6d1f1	-0.12051762
151	0xc0044083	-2.0664375
152	0x3ee7e123	0.45288953
153	0x3e778786	0.24172792
154	0xbfa763c6	-1.3077323
155	0x400422d5	2.064626
156	0x3f9b7b88	1.2147074
157	0x3fb48dc1	1.410576
158	0x404f814b	3.2422664
159	0xbfa6db3d	-1.3035656
160	0x3e5b3d1f	0.21410035
161	0xbf318b3f	-0.693531
162	0x3ff600b9	1.921897
163	0x4018206a	2.3769784
164	0x3d834f5c	0.06411621
165	0x4029faef	2.6559408
166	0x3fc6a345	1.5518576
167	0x3fdba30a	1.715913
168	0x3fca3bed	1.5799538
169	0xc038c0df	-2.886772
170	0x3fd419e3	1.65704
171	0x3fb43f95	1.4081904
172	0x3e9a286b	0.3010896
173	0xbe7f615b	-0.24939482
174	0x3fe5b284	1.7945104
175	0x3faeaec6	1.3647087
176	0x3f32c53f	0.69832224
177	0x3d72901d	0.05921947
178	0x404e2445	3.2209637
179	0xc0206580	-2.506195
180	0x406fae7e	3.7450252
181	0x40466964	3.1001825
182	0x3fa14e09	1.260194
183	0x3fda197a	1.7039025
184	0xbe8a87eb	-0.27056822
185	0xbf0642c9	-0.52445656
186	0x3faf67fe	1.3703611
187	0x40267bc0	2.601303
188	0x4090b721	4.5223546
189	0xbffb2ef2	-1.9623702
190	0x4077f8f4	3.87457
191	0xbf83bee8	-1.0292635
192	0x4010aeb6	2.2606635
193	0xbfbefbb3	-1.4920563
194	0x3f92829e	1.1446111
195	0x40578484	3.367463
196	0x3fe8db7b	1.819198
197	0x4086fc51	4.2183003
198	0x402cc529	2.6995337
199	0x3e1b6fcb	0.15179364
200	0x3f1d70ab	0.6150004
201	0xbef2cb5d	-0.4742078
202	0xbfbceebd	-1.4760357
203	0x3ff38bb0	1.9027004
204	0x3fc6db5d	1.5535694
205	0xbfdf8c2f	-1.7464656
206	0x3edcc5ed	0.43119755
207	0x3ea582e3	0.3232642
208	0xbf3bf6cd	-0.73423463
209	0x3f6b1053	0.91821784
210	0x3f34d045	0.70630294
211	0x3f23d580	0.6399765
212	0x403e43f2	2.972897
213	0x3fa35044	1.275887
214	0x3fc87bb5	1.5662752
215	0xbff2fcce	-1.89834
216	0xbfcdf862	-1.6091425
217	0xbfb00ff9	-1.3754874
218	0x3ee9b12a	0.45642978
219	0x3ee36960	0.44416332
220	0xbe571a50	-0.21006131
221	0xbf61a712	-0.88145554
222	0xbf97d4d9	-1.1861831
223	0x3fb9affb	1.450683
224	0xbfc40382	-1.531357
225	0x3fbdaa99	1.4817687
226	0x3fb1ac1e	1.3880651
227	0xbfb908dc	-1.4455829
228	0x3fd0fbd3	1.6326851
229	0xbfa76280	-1.3076935
230	0xbfa0c91b	-1.2561373
231	0x3fb16342	1.3858416
232	0x3fff137b	1.992782
233	0x3fd814a9	1.6881305
234	0x3e05401a	0.13012734
235	0xbd61a03f	-0.055084463
236	0xbf150b87	-0.58220714
237	0xbf15f47d	-0.58576185
238	0x3f9d201a	1.2275422
239	0x3fefdcaf	1.8739222
240	0xbfa78a0a	-1.3089001
241	0xbfc8eae8	-1.5696688
242	0x3ec36a9b	0.3816727
243	0x3d8bc1e0	0.06824088
244	0x3eb298d4	0.34882224
245	0x3f410560	0.75398827
246	0xbee71591	-0.4513364
247	0x3f4cbbd7	0.7997412
248	0xbea1819a	-0.3154419
249	0x3d21fdbf	0.03954863
250	0xbefc0dac	-0.4922918
251	0x3f2f07f1	0.6837149
252	0x3e9e3d00	0.30905914
253	0xbe088ba8	-0.13334525
254	0x3e070224	0.1318441
255	0x3e0890cc	0.13336486

fc1.bias f4 [64]
0	0x3e583c1a	0.21116677
1	0x4143f8ab	12.24821
2	0x3f029ed1	0.51023585
3	0x411cf51f	9.809844
4	0xc0cd7f12	-6.4217615
5	0x41ac9cd6	21.57658
6	0xc0a9e336	-5.3089857
7	0xc01d5f04	-2.4589243
8	0xc1750e68	-15.316017
9	0xc08edd3c	-4.464506
10	0xbfb11e56	-1.3837383
11	0xc0cd2044	-6.4101887
12	0x4197651e	18.924374
13	0xc114f9f5	-9.311025
14	0xc09a72a3	-4.8264937
15	0x412c9707	10.786872
16	0xc0c2c819	-6.086926
17	0xc0cea7d0	-6.457985
18	0xc08f3c89	-4.4761395
19	0x41305c87	11.02259
20	0x3f9b6f31	1.2143308
21	0xc06b235d	-3.6740334
22	0xc10c8884	-8.783329
23	0x41918f18	18.19487
24	0xbfc32405	-1.5245367
25	0xc09569fd	-4.669188
26	0xc116193e	-9.381163
27	0xc0f11886	-7.5342436
28	0xc0bdf750	-5.9364395
29	0xc1164e8a	-9.394175
30	0x3ff02d92	1.8763907
31	0xbed88ebd	-0.422964
32	0xc0e63cfa	-7.1949434
33	0x3eb83cc2	0.35983855
34	0x40d633c5	6.6938195
35	0x413cce4b	11.8003645
36	0xc09714e9	-4.7213025
37	0xc03cfeba	-2.9530473
38	0xc0df51c7	-6.9787326
39	0x411df51a	9.872339
40	0x40324c3a	2.7859025
41	0x41492954	12.57259
42	0xc10ff858	-8.998131
43	0xc100e767	-8.056495
44	0xc0a17e1f	-5.0466456
45	0xc111ad64	-9.104832
46	0xbfa443ec	-1.2833228
47	0x412a24f6	10.634024
48	0x41656fc7	14.339789
49	0xc0f083d3	-7.516092
50	0xbff2de1b	-1.8974031
51	0x3f79f8c0	0.9764519
52	0xc0da027f	-6.8128047
53	0xc03d16e2	-2.9545217
54	0xc0395af3	-2.896176
55	0xc0c34542	-6.1022043
56	0xc0991ff4	-4.7851505
57	0x413f25c3	11.946719
58	0xc11cebbc	-9.807552
59	0x4179fcb3	15.624194
60	0xc0d78747	-6.7352633
61	0xc0b772a1	-5.732743
62	0xc0a102b9	-5.0315824
63	0x40a2f9dc	5.0930004

fc2.weight f4 [3, 64]
0	0x3df9f75e	0.12205385
1	0x3e8e9ee1	0.2785559
2	0xbd0a00e3	-0.033692252
3	0x3e32650b	0.17421357
4	0xc069147d	-3.6418755
5	0x400c0654	2.1878862
6	0xc08cbe63	-4.3982406
7	0x3f4fdc85	0.8119586
8	0xbf6e55f9	-0.93099934
9	0xc08e2d00	-4.442993
10	0x3e803fc5	0.25048652
11	0x3ee1abea	0.44076473
12	0x3f91fe71	1.1405774
13	0x3d931630	0.07181966
14	0xbe71b5dc	-0.2360453
15	0x3e8de5eb	0.27714476
16	0xbcfcb915	-0.030849973
17	0xbe3db889	-0.18527426
18	0x3d899644	0.06718114
19	0x3e81f63f	0.25383183
20	0xbe35dee7	-0.17760812
21	0xbffbb6f5	-1.9665209
22	0x3f3dc34e	0.74126136
23	0x3f76d33c	0.9641607
24	0x3d9e4ac0	0.07729101
25	0x409c1c77	4.8784747
26	0x3ec94a6d	0.39314595
27	0xbe6a8065	-0.22900541
28	0x3f8270a4	1.0190625
29	0xc04df663	-3.2181633
30	0x3fb32951	1.3996984
31	0x3e233add	0.15940423
32	0x3ee2b20d	0.44276467
33	0x3ea6939a	0.32534486
34	0x3e6fa8e8	0.23404276
35	0x3e89c005	0.26904312
36	0xc0a550b1	-5.1661
37	0xc0b443c4	-5.633272
38	0xbf0ddbfa	-0.5541378
39	0x3e42bc63	0.19017176
40	0xbdd9d51a	-0.10636349
41	0x3ed454bb	0.41470894
42	0xc0844f3b	-4.1346717
43	0xc0746a6b	-3.8189952
44	0x3f0d1538	0.551105
45	0xbda5743d	-0.08078811
46	0xbcea8a3e	-0.028630372
47	0x3e47f447	0.19526778
48	0x3e59bb35	0.2126282
49	0xbe85339c	-0.26015937
50	0x3d2c978b	0.04213671
51	0x3f195cc4	0.59907174
52	0xbe8acd89	-0.27109936
53	0xbc8fc5e6	-0.01755042
54	0xbf4685c1	-0.7754784
55	0xc09798b5	-4.737391
56	0xc073764f	-3.804096
57	0x3e7a0ddd	0.24419351
58	0x40a5821e	5.1721334
59	0x3ed72a72	0.4202457
60	0xbe86d4bf	-0.26334187
61	0x3f2a9628	0.6663537
62	0xc0a9771b	-5.2957892
63	0xbd36d13b	-0.04463313
64	0xbd0426ee	-0.03226369
65	0x3e62dfe9	0.22155727
66	0x3e92eeaa	0.2869771
67	0x3e7ac24c	0.24488181
68	0xbcf2257a	-0.029558886
69	0x40137ed5	2.3046162
70	0xbd5abf09	-0.05340484
71	0xc0657dfa	-3.585814
72	0xbf3b27bb	-0.731075
73	0xbd251ce9	-0.040310774
74	0x3ecc66e4	0.3992225
75	0x3dd6e849	0.10493524
76	0x3f9303de	1.1485555
77	0xc18366e7	-16.425245
78	0x3a6b9832	0.00089872174
79	0x3e2f8a4b	0.17142598
80	0x40a04538	5.0084496
81	0xbd8b5fb6	-0.06805365
82	0xbf0b0ff5	-0.54321223
83	0x3e88b034	0.26696932
84	0x3eb192f4	0.3468243
85	0xbddaea7f	-0.10689258
86	0xc0a421ab	-5.12911
87	0x3eea8135	0.45801702
88	0xc05f0fea	-3.4853463
89	0x3d9c65bd	0.076365925
90	0xc0b12233	-5.5354247
91	0x3eb0531c	0.34438407
92	0xc08c7560	-4.389328
93	0xbf80739c	-1.0035281
94	0x3f1bf361	0.6091824
95	0xbc993797	-0.018703265
96	0xbe088886	-0.1333333
97	0xbcb60e65	-0.02222366
98	0x3e12c6fd	0.1433372
99	0x3e911f80	0.28344345
100	0x3d2aa38d	0.04165988
101	0xbd4aaca9	-0.049481068
102	0xbf08ea75	-0.53482753
103	0x3e40ea94	0.18839484
104	0x3ec81418	0.3907783
105	0x3ef67270	0.48134184
106	0xbd882702	-0.06648065
107	0xbf15a112	-0.584489
108	0x3e0da137	0.1383103
109	0xbd0677ea	-0.032829203
110	0xbc34233a	-0.010994727
111	0x3e82a06d	0.2551302
112	0x3ea52b10	0.32259417
113	0x3edeb9cd	0.4350113
114	0xc088fdeb	-4.280996
115	0x3f0d7d70	0.5526953
116	0x4090062a	4.5007524
117	0xc063ec50	-3.5612984
118	0xbf1afe18	-0.60543966
119	0x3d8a4106	0.067506835
120	0xbd1f12f2	-0.038836427
121	0x3e652144	0.22375971
122	0xbdd0a06b	-0.10186847
123	0x3f07b880	0.530159
124	0xc1204ac9	-10.018258
125	0x3f5557d0	0.83337116
126	0xbb02fba6	-0.001998642
127	0x3e553e59	0.20824565
128	0xc08f2dc4	-4.4743366
129	0x3e96a8f7	0.29425785
130	0xc018160d	-2.3763459
131	0x3e648a7e	0.22318456
132	0xc0137b27	-2.3043916
133	0x401d4401	2.4572756
134	0x3d4a9bc8	0.04946497
135	0x3fc55911	1.5417806
136	0xbf4dac75	-0.80341274
137	0x3db3b10b	0.08774003
138	0x3f258d75	0.6466897
139	0xc0861cdf	-4.1910243
140	0x3f20dbae	0.62835205
141	0x3e8329dd	0.25617877
142	0x4097b71b	4.7411017
143	0x3e8122a0	0.2522173
144	0xbe194c8b	-0.14970605
145	0x3f0d6bfc	0.55242896
146	0xbf2935db	-0.660978
147	0x3e77b0b4	0.241885
148	0x3d861812	0.0654756
149	0xc0386a0a	-2.881472
150	0x3f7b6700	0.9820404
151	0x3f50224c	0.8130233
152	0x3db38ac5	0.087667026
153	0x3cee49ce	0.029087927
154	0xc1050b13	-8.315204
155	0xbeb0e54c	-0.3454994
156	0xbf8877aa	-1.0661519
157	0xc0b3e9a4	-5.6222706
158	0x3f532320	0.8247547
159	0xc05d4653	-3.4574172
160	0x3ef6f861	0.48236373
161	0xbe5506cf	-0.20803379
162	0x3e966ada	0.29378396
163	0x3e856f39	0.2606142
164	0x3dcc4206	0.099735305
165	0xbc77f177	-0.015133253
166	0xbf151d2f	-0.58247656
167	0x3e2e3040	0.17010593
168	0x3ec00d69	0.3751023
169	0x3ed0c0ee	0.40772194
170	0x3f461867	0.77380985
171	0xc0962904	-4.692507
172	0xc0e35ac8	-7.1048317
173	0x40d1fbc5	6.5619836
174	0xc04d103f	-3.2041166
175	0x3de3a68e	0.11115752
176	0x3e88d655	0.26726022
177	0x3df51749	0.11967332
178	0x3cfea9e5	0.031086871
179	0x3ea15a6a	0.31514293
180	0xbdbc453e	-0.091928944
181	0x3dbd51c0	0.09244108
182	0xbf3954aa	-0.7239481
183	0xbf83ab13	-1.0286583
184	0x3e8937dc	0.2680043
185	0x3eabf1d6	0.33582944
186	0xbdd7ebb5	-0.105430044
187	0x3f0bfb21	0.5468007
188	0xbe152405	-0.14564522
189	0x3e580e11	0.21099116
190	0x3efb8230	0.49122763
191	0x3e8f2065	0.27954403

fc2.bias f4 [3]
0	0x415eb086	13.918097
1	0x416bbd74	14.733753
2	0x41600add	14.002652
