models/2conv___480.00max__129.66avg____0.00min__1658516900.model (torch, 73406 bytes, 12 tensors)

seq.0.weight f4 [16, 1, 3, 3]
00000000: ca95 0ebf e8b0 09c0 9395 d93e a737 0cc0
00000010: 5a79 793f 6b44 c2bf eb35 a6bb 4263 b3bf
00000020: f21f 363d 9d59 1fc0 67d9 0e40 0232 0240
00000030: aa9a e53f 65b7 dc3f 3625 f5bf effb b23f
00000040: 3d8f 20bf fc34 31bd 8c6f a33e 5e40 103f
00000050: dbef 4ec0 8d33 2ebc 769e a83d 1769 e5bf
00000060: 39ac a6bc b0e6 1bbd beac fbbd a3bd 68be
00000070: 39e6 17bf bcad 9bbf 4bea 3cbf bda5 b8bf
00000080: e5d4 acbf 1a06 a5be 6f16 f03f 1933 e83f
00000090: 91ae 893f aadf e43e e74b 7b3e 5cd0 da3f
000000a0: a93b 5e3f f081 f73e 1a0e 62c0 c742 993f
000000b0: 235a 3d3f 9420 063f 309d c7bf 4507 973e
000000c0: 5aef 8ebf 936a 1cc0 2b15 c1bf ac79 ce3e
000000d0: 8a1c 7bbf 1b25 1a3f 4577 a63e bd12 663e
000000e0: 89f7 503d 6526 483f 0ac9 4a3e 7468 f9be
000000f0: a303 193f 7b16 76c0 bfc0 edbf 51c0 bbbe
00000100: 332b a6be 04fb 85bd 8b71 723b 1992 15be
00000110: 8b73 e1bf 66b4 823e a962 1c3f 66c4 5dc0
00000120: 8e23 42be d16f 89bf 5dc6 36bc 6e17 8fbf
00000130: 26f0 c83b 732a c8bf adec 66be e1da adbf
00000140: f37b dfbf a751 24c0 0b60 87be a58e cfbe
00000150: 1882 763f 7847 9b3e 4571 54be b3ac 993f
00000160: 72d8 a4bf bd57 c53b d5d7 0140 798d 0740
00000170: 3fa9 0440 3232 1340 9dc1 9ebf 81cf 1640
00000180: 823e ef3f 93e7 1740 299a fdbf ba73 4d3f
00000190: 8113 583f 2ac6 403f 12c5 573f 3155 c2c0
000001a0: e279 763f dd28 3b3f e714 603f 8032 783f
000001b0: d502 d83c 1634 35bf 9596 e6bc eba9 97bf
000001c0: c570 0f3f 5755 583b 1f70 66c0 ecc5 5e3f
000001d0: 4dd3 303f 9aeb 12be 5341 92be 0a78 93bd
000001e0: df24 36c0 93ac 513f 4439 5f3d e3b6 c53f
000001f0: c118 893f be1f abbf 6a84 563f 2242 9f3f
00000200: 174a 5ac0 0c6e f13e 81b5 2d3f d46f cc3f
00000210: 3c01 a03e 3003 1a3f d967 693f 0e16 233e
00000220: 3df0 62c0 1e7b 0bc0 b978 353e 989b 963e
00000230: d85d f0be bf43 253e 62a7 313e a695 1bbe
-0.5569731 -2.1514225 0.4249693 -2.1908967 0.9745079 -1.517713 -0.0050723455 -1.4014666
0.04446406 -2.4898446 2.2320192 2.0343022 1.7937825 1.7243468 -1.9151981 1.3983134
-0.62718564 -0.04326342 0.3192104 0.56348217 -3.2333896 -0.010632408 0.08233349 -1.7922696
-0.020345794 -0.038061798 -0.12288807 -0.2272859 -0.59335667 -1.2162395 -0.73795 -1.4425579
-1.350247 -0.32231218 1.8756846 1.8140594 1.0756398 0.44701892 0.24540673 1.7094836
0.86809784 0.48341322 -3.5321107 1.1973504 0.7396566 0.5239346 -1.5594845 0.29497734
-1.1166794 -2.4440048 -1.5084585 0.40327203 -0.9809042 0.6021287 0.3251287 0.22468086
0.051017318 0.78183585 0.19803253 -0.48712504 0.59771174 -3.845122 -1.8574446 -0.36670163
-0.32454833 -0.06542018 0.0036993946 -0.14606513 -1.7613386 0.25528258 0.61088043 -3.4651122
-0.18958876 -1.0737249 -0.011155692 -1.1179025 0.0061321435 -1.5637954 -0.22551222 -1.3582422
-1.7459701 -2.5674837 -0.26440462 -0.40538517 0.9629226 0.30327964 -0.20746334 1.2005829
-1.2878554 0.006022422 2.0287983 2.1180098 2.07283 2.2999387 -1.2402836 2.356415
1.8690951 2.3735092 -1.9812671 0.8025471 0.8440476 0.75302374 0.8428508 -6.0728993
0.9627973 0.7310923 0.87531894 0.96952057 0.026368538 -0.707826 -0.028147975 -1.184873
0.5603145 0.003300985 -3.6005933 0.87020755 0.6907242 -0.14347687 -0.28565463 -0.0720063
-2.8460004 0.8190395 0.054497972 1.5446438 1.0710679 -1.3369062 0.837958 1.2442057
-3.410772 0.47154272 0.6785508 1.5971627 0.31250942 0.60161114 0.91174084 0.15926382
-3.545913 -2.1793895 0.17721833 0.29415584 -0.46946597 0.16139124 0.17349008 -0.15193805

seq.0.bias f4 [16]
00000000: c614 07c0 1922 5bc0 a2d1 3fc0 3743 34c0
00000010: 2895 44c0 7f3f 23c0 2bf5 79c0 848d 62c0
00000020: 45f0 07c0 081a 0ec0 573e 50c0 497b 61c0
00000030: 1a00 52c0 242b 05c0 3966 46c0 6a88 55c0
-2.110643 -3.4239562 -2.99717 -2.8166025 -3.0716038 -2.5507505 -3.9055889 -3.5398874
-2.12404 -2.2203388 -3.253805 -3.5231497 -3.2812562 -2.080758 -3.0999892 -3.336451

seq.3.weight f4 [25, 16, 3, 3]
00000000: c31a 813d 454c 5dbe 5f50 34be 6bf2 8c3c
00000010: df74 22be 93e9 2cbe ad28 e2bd 07f9 cfbd
00000020: f0d6 eebd ef04 80bc adde ecbe 6147 bb3d
00000030: 2795 7c3c 67b9 a1bd 7803 6cbe dbff 063d
00000040: 7631 cabd ca6c c9bd d9e0 eabe c571 cdbe
00000050: fd74 3abd abe7 f5bd cc62 7dbe e01c 1fbf
00000060: b0cd 3dbd 4216 ccbd 9acf f6bb 3ded 34be
00000070: b05e 24bf c5cd b6bf 3433 0d3d 1033 08be
00000080: 14b4 03be 4cca 89bd 26d8 48bd 8c65 dbbc
00000090: 791c 7abd 8607 18bf 6eda 84be b1af adbc
000000a0: 3861 8bbe 0676 4fbe 158b 8cbd 086b bdbd
000000b0: fc16 35be 2ed5 93bd 430a 0ebf 59dc 5dbf
000000c0: 9eb3 14be d0d4 603d 13bc a5be d6dd b13c
000000d0: 1eaf adbd 7c5d b33b 1828 92bc 09c6 96be
000000e0: 5309 3d3d e65c 7fbc 3449 81bd 7202 4939
000000f0: de89 ba3c 49c9 9ebd e940 debc 4ad2 47be
00000100: 92aa 573b 18af dbbe 37bc 17bd 2172 6dbd
00000110: 0db1 f13d 1f2c 193d 642f e1bd 5e8e 02be
00000120: d003 2ebf d0a6 27bf aede ba3d 965f f23c
00000130: 730f 17bd 1441 1ebe c89e 40bd 0807 653d
00000140: 85ab 0ebe 089f b0bd 1d01 8dbe b359 97bf
00000150: 69cc a7bc 4a87 143c b6d7 40be a7bc d7bd
00000160: 8ce6 823c 12fd d83d d55c 9b3c 772d 70bd
00000170: 93d6 7a3e 0981 0fbe f71e 91bb 6b07 993e
00000180: 9590 83be 87a1 afbe 8bb7 d0bd 7bb2 fabd
00000190: 8871 463e dacc 13bc 4acd 453d 1fe4 3a3b
000001a0: 172e 63bc 9a21 313d b32f 373d d089 d0bd
000001b0: 6931 86bc 6143 24be 34be d93d 4e8d 33bd
000001c0: 29b6 b5bc 89e3 80bd f936 743d ada1 f8bd
000001d0: 602e 06bd 3b2c efbe ab67 4bbf c004 18bf
000001e0: b4dd 24bd ac65 32bf 5ba1 12be bc3c 1dbd
000001f0: 0c00 4bbe 2259 a9be 176f 04be f500 f93e
00000200: fddb d53e 6872 ccbd ba17 4dbe 79d0 89bd
00000210: 9b6d 173d 704b 99bd 6f58 35be 0b3d 31bf
00000220: 5e20 f0be 4680 37bf 4267 bc3e ea70 90bd
00000230: afd5 a33d 028e 92bd 88b7 debd 65b1 22be
00000240: c83f dc3f e52e b43f 0d28 2fbd 5dfc 813e
00000250: b7a7 463f a77f bbbe b2ef 0240 6034 b83f
00000260: adec 42be 9ccd 8f40 df90 5740 61c1 6f40
00000270: dd01 3cbf 3ffc e03f 3eb2 6f3f 8d70 0640
00000280: 8aba a13e 212a e03f c88d cabd 5bd6 573e
00000290: 1b4f a23f 52db 88bf 68a3 34bf 5797 ed3f
000002a0: 4ef0 3140 fd6c ffbf c7cf 5c40 e62d 46bf
000002b0: adce dfbf 37b0 0a40 d82b 573f 6e99 8d3f
000002c0: dee8 c23f 494b 12c0 5a6a 70be ec3a 15bf
000002d0: 9ecf 8a40 2a59 2040 d520 0f40 8b89 0540
000002e0: ffee 1dbf 8aad 7a3f 67bd b740 40c4 833f
000002f0: 5c9f 3e40 e3be 293f 9989 7c3f 53bc 1bbf
00000300: 52ce 64bf ec3d 8c3d cfb0 92be 11de 863e
00000310: 01af d13f 6e0d 41bf d162 84bf 863f fdbe
00000320: fea3 d9bf 7434 393f 5164 5f3f ae0a b43f
00000330: d858 e2bf e8c2 07c0 dbfd 81c0 db45 1ec1
00000340: c983 1ac0 5cd4 c0c0 a69e 15c0 28ae 5bc0
00000350: 4dbb d9c0 4fa8 afc0 4a9c 10c1 8915 0ac1
00000360: 7e97 c4be 1f27 dfbf 4bb4 1140 20c0 ba3e
00000370: 8159 643e efb4 513f be49 753f 1752 dabf
00000380: c972 0840 9390 ebbf 7826 483f 86b1 e7be
00000390: cc01 ac3e dabf e4bf 0434 79bf d74f a8c0
000003a0: 8fc4 37c0 27e5 9bbf e28f 863f f3ba 213f
000003b0: 8a4a 2e3f 93a1 4440 5cb5 3f40 bdb4 0b40
000003c0: b89e 6540 5420 e53f 9cd5 ee3f 350b 0b3f
000003d0: 04f7 cf3e 59f6 b43e 3cb4 b4be 9f7d 8dbe
000003e0: 75f4 843d 3f2c 27bf 2695 6ebf 0892 b2bf
000003f0: 8973 1fc0 50c4 1cc0 2c09 0dbf 5fbc c4be
0.063039325 -0.21611126 -0.17608784 0.017205438 -0.15864895 -0.16885976 -0.110429145 -0.1015492
-0.1166209 -0.015627353 -0.46263638 0.09144474 0.01541642 -0.07896691 -0.23048198 0.032958847
-0.09872715 -0.09835203 -0.4587467 -0.40125862 -0.045521725 -0.12007078 -0.2474472 -0.62153435
-0.046338737 -0.09965183 -0.0075320723 -0.17668624 -0.6420698 -1.4281546 0.03447266 -0.13300729
-0.12861663 -0.06728038 -0.04903426 -0.02678182 -0.06106231 -0.5938648 -0.259479 -0.02120194
-0.2722261 -0.20259866 -0.06862465 -0.0924893 -0.17684549 -0.07218395 -0.5548441 -0.8666435
-0.14521644 0.054890454 -0.32370052 0.021712225 -0.084806666 0.0054737907 -0.017841384 -0.29447964
0.04615147 -0.015586114 -0.063127905 0.00019169765 0.022770818 -0.07753236 -0.027130561 -0.19513813
0.0032908064 -0.42907023 -0.03704473 -0.05797017 0.11801348 0.037395593 -0.10995367 -0.12749621
-0.6797457 -0.6548891 0.09124504 0.029586595 -0.036879968 -0.15454513 -0.047026426 0.05591491
-0.13932617 -0.08624083 -0.27539912 -1.1824249 -0.020483213 0.009065459 -0.18832287 -0.105340295
0.015979074 0.10595144 0.018965164 -0.05863711 0.24495916 -0.14014067 -0.00442874 0.29888472
-0.25696245 -0.34302923 -0.10191258 -0.12241074 0.19379246 -0.009021008 0.048291482 0.0028517318
-0.013865969 0.043244936 0.044723224 -0.10182536 -0.016380982 -0.16041328 0.106319815 -0.04383593
-0.022181587 -0.06293399 0.05962274 -0.12140212 -0.03275907 -0.46713433 -0.7945506 -0.5938225
-0.040250495 -0.6968639 -0.14319365 -0.038388 -0.19824237 -0.33075815 -0.12933002 0.48633543
0.417694 -0.09982759 -0.20028582 -0.06729216 0.036969762 -0.07485092 -0.17709516 -0.6923377
-0.46899694 -0.71680105 0.3679753 -0.07052787 0.07999741 -0.07155992 -0.108748496 -0.15887983
1.7206964 1.4076811 -0.042762805 0.2538785 0.7759966 -0.36620829 2.0458798 1.4390984
-0.19035597 4.493849 3.3682172 3.746178 -0.73440343 1.7576979 0.9363135 2.1006196
0.3158763 1.7512857 -0.09890324 0.21077864 1.2680391 -1.0691931 -0.7056184 1.856181
2.780292 -1.9955136 3.4501817 -0.77413785 -1.7484947 2.1670053 0.84051275 1.1062448
1.5227315 -2.285845 -0.2347807 -0.5829303 4.337844 2.5054421 2.236379 2.08652
-0.61692804 0.9792105 5.7418704 1.0294266 2.9784765 0.66306895 0.9864746 -0.60834235
-0.8937732 0.06847748 -0.2865052 0.26341298 1.6381532 -0.7541112 -1.0342656 -0.49462527
-1.7003171 0.7234566 0.87262446 1.4065759 -1.7683363 -2.1212711 -4.062238 -9.892055
-2.4142935 -6.025923 -2.3378081 -3.4325047 -6.804114 -5.4892955 -9.0381565 -8.630258
-0.3839683 -1.7433814 2.2766292 0.36474705 0.22299768 0.8191671 0.95815647 -1.7056302
2.132006 -1.8403496 0.781837 -0.45252627 0.3359512 -1.7871048 -0.97344995 -5.259746
-2.871372 -1.2179307 1.051266 0.63175887 0.6808249 3.0723617 2.9954443 2.1829064
3.5878124 1.7900491 1.8658938 0.54313976 0.40618145 0.35344198 -0.35293758 -0.27634904
0.06491939 -0.6530189 -0.9319633 -1.3950815 -2.4914267 -2.449482 -0.5509212 -0.38424966

seq.3.bias f4 [25]
00000000: df68 79bf a3b5 c73f a6e1 5c40 e64c 07bf
00000010: d9d3 713f 1c05 bfbe 4823 56be 5374 c6be
00000020: 27f1 5940 4323 a5be dfc3 903e c462 193f
00000030: 84b3 7a3f 3b99 873f 95f6 d83f 31c4 bbbe
00000040: 0885 fc3d 3cc1 aa3f 326d 9dbf ad1e 5741
00000050: fe0a e5be 5cb9 31c0 18a0 bbbe 7120 ccbe
00000060: 3622 e8be
-0.97425646 1.5602306 3.4512725 -0.5285171 0.9446388 -0.37308586 -0.20911896 -0.38760623
3.4053438 -0.32253465 0.28274438 0.5991633 0.9793017 1.0593637 1.6950251 -0.3667312
0.12330061 1.334022 -1.2298949 13.444989 -0.4473495 -2.7769384 -0.3664558 -0.398685
-0.453386

seq.6.weight f4 [100]
00000000: 0f92 073f c18f 393e 706d 3d3f 7a08 f63b
00000010: e3ba 103f 9501 e63e 183d 203f c443 423f
00000020: 6e09 133f 7fbc 0e3f 54e3 033f 619b 2b3f
00000030: ba26 a13e d1e2 003f 2cbd b93e 1f2c 013f
00000040: 87dd 963f 4ba9 953f f1b4 973f 6afc 7e3f
00000050: 4882 5c3f b6d9 293f 5e65 5c3f 0b55 da3e
00000060: 0bfe 623f e95a 633f 7163 7b3f e06c 7b3f
00000070: 3443 213f 1c65 6c3f 793e 203f 94ef 303f
00000080: d658 413f 1a30 853f 2d24 2f3f f21e 3e3f
00000090: 0000 803f e5fd 3b3f a09a 673f 0000 803f
000000a0: fa27 743f c39d 8b3f 8b38 7e3f f21a a03f
000000b0: d5b0 6c3f 0ace 953f 95d4 833f 1053 893f
000000c0: 95dc 213f f07d 6d3f 6124 1d3f 1f7c 263f
000000d0: 280c 8f3f 9340 903f ba6c 953f f345 c73f
000000e0: 1195 493f 7324 593f 217d 313f 8582 4e3f
000000f0: b24f 133f 240f 363f c517 423f 1e06 813f
00000100: 6ec0 653f b53f fc3e 39cf 3a3f 7026 583f
00000110: 119d 6c3f 0695 2b3f ca0c 2a3f e556 613f
00000120: f37b d73e 9e4a 2c3e 5a81 6f3e 4aaf d43e
00000130: 3311 a13f ee46 743f d5d2 753f 47d0 8d3f
00000140: fa77 8a3f 7eb0 373f 9650 6c3f 3d84 3f3f
00000150: 296d 203f e3f2 743f 90a2 503f 4981 363f
00000160: 6976 2d3f 16c0 763f 964e 163f 89d0 103f
00000170: cf9a 673f 938c 713f 4335 4f3f d3be 513f
00000180: 509a 263f eca3 263f 0cbe 3e3f 7619 643f
0.5295724 0.18121244 0.73995113 0.0075083347 0.56535167 0.44923082 0.6259322 0.7588465
0.57436264 0.5575637 0.5151875 0.67033964 0.3147486 0.50346094 0.3627714 0.5045795
1.1786355 1.1692289 1.1852094 0.99603903 0.86136293 0.66347826 0.86092174 0.42643008
0.8866889 0.8881059 0.9819861 0.98213005 0.6299317 0.9234178 0.62595326 0.6911557
0.7552618 1.0405304 0.68414575 0.7426597 1.0 0.7343429 0.90470314 1.0
0.953735 1.090752 0.9930503 1.2508223 0.92457324 1.1703503 1.029925 1.0728474
0.63227206 0.9277029 0.61383635 0.65033144 1.1175585 1.1269706 1.1673806 1.5568222
0.7874308 0.8482124 0.69331557 0.80667907 0.5754348 0.7111685 0.7581752 1.0079992
0.8974675 0.49267355 0.72972447 0.8443365 0.92427164 0.67024267 0.66425765 0.88023216
0.42086753 0.16825339 0.23389187 0.41539985 1.2583374 0.9542073 0.9602483 1.1079186
1.0817864 0.7175368 0.92310464 0.74811155 0.62666565 0.95683116 0.8149805 0.71291023
0.67758805 0.9638685 0.5871366 0.565682 0.90470594 0.94355124 0.80940646 0.819318
0.6507921 0.65093875 0.7450874 0.8910135

seq.6.bias f4 [100]
00000000: d43f 2a3e a6e3 32be 2b76 37be 0c4f 093e
00000010: bd43 133e 3338 d2bc 4f51 223e 51e1 78bd
00000020: 6d6f 393e 19f9 eb3d 199f 833e ded9 a13e
00000030: 7331 3abe c33a 1d3e 10ee 4c3d e257 9a3d
00000040: 8201 d73e 5dac 033f 8e82 ef3e 9b4f 033f
00000050: c3e9 0f3e 3f08 4ebe 5fad 113e 16b8 01be
00000060: f277 84be a6fb a23d 765b d7bd 4050 e33d
00000070: 566c 2c3e bd22 9ebd 21c1 e2bd de8b 02be
00000080: 1263 e3be 5055 0ebf 22f7 c1be 573a 60be
00000090: fbb5 51be 7e6c aebd dd54 3e3e d3b9 ab3d
000000a0: dde0 cf3e e2ee 033f 27eb ab3e a55b 143f
000000b0: a798 e33e 0198 1a3f 1d50 ec3e 7cfa ce3e
000000c0: d3f4 dbbd aab3 7abe 8411 2fbe 82d5 8fbe
000000d0: ce1a dd3e 2ed1 0b3f 32af 0a3f 0824 633f
000000e0: 6d6f adbc 4464 9b3d e93c 2bbe 9d46 89bc
000000f0: 4321 293e e3a5 383e ee3a f63d 955c c33d
00000100: 45eb 2c3e 7e92 253e 7a7e 0e3e 03fa 4e3e
00000110: d360 9fbe ac5f 0cbd 3e0f 6dbc cb49 2a3e
00000120: afaa 33be 982b a3bd 0784 babb 3ed9 9dba
00000130: f09f 86bf 4b6f 6bbf 5169 13bf 9871 5bbf
00000140: 3c84 efbd 98ac d13c eaa8 113e 7ff5 2c3e
00000150: dfc7 e03d 587f 863d 84be 7b3e afb7 543e
00000160: 87ee bfbd 8272 683d faf2 2e3e bd8c 153e
00000170: f2dd bcbd d6a2 913d e8ce 473e 4c37 733d
00000180: 6107 413e 421a 7dbd 1641 9fbd 8128 fbbd
0.16625911 -0.17469653 -0.17916171 0.1340906 0.14381309 -0.025661564 0.1585133 -0.060761753
0.18108912 0.11522121 0.2570732 0.31611532 -0.18182926 0.15354447 0.05003172 0.075362936
0.41993338 0.5143488 0.46779293 0.51293343 0.14054017 -0.20120333 0.14226292 -0.1266788
-0.2587276 0.079581544 -0.10515492 0.11099291 0.16838202 -0.077214696 -0.11071993 -0.12748668
-0.44411522 -0.55598927 -0.3788386 -0.21897255 -0.20479576 -0.08516787 0.1858706 0.083850525
0.40601245 0.5153638 0.33577845 0.5795234 0.44452402 0.6038819 0.46154872 0.4042548
-0.10740056 -0.24482599 -0.17096525 -0.2809258 0.43184513 0.5461606 0.54173577 0.88726854
-0.021171296 0.075874835 -0.16722454 -0.016757304 0.16516595 0.18032031 0.12022959 0.09539143
0.16886623 0.16169164 0.13915434 0.2021256 -0.3112856 -0.034270927 -0.014468966 0.16629712
-0.1754558 -0.07967299 -0.0056920084 -0.0012042893 -1.0517559 -0.91966695 -0.57582575 -0.85720205
-0.116951436 0.025594994 0.14224592 0.16890524 0.109756224 0.06567258 0.24584395 0.20773195
-0.09371667 0.05674983 0.17084876 0.14604469 -0.0922202 0.071111366 0.19512522 0.059378907
0.18850471 -0.06179262 -0.07776086 -0.12263585

seq.6.running_mean f4 [100]
00000000: 0400 0000 0400 0000 0400 0000 0400 0000
00000010: c01a d83f e4c4 d23f c69c da3f 4bd6 cc3f
00000020: 0182 8c40 9fcd 9440 e0c8 8d40 1404 9340
00000030: 0400 0000 0400 0000 0400 0000 0400 0000
00000040: 5cb3 fe3f 7a4e 1d40 3855 0740 3cb5 2b40
00000050: 0400 0000 0400 0000 0400 0000 0400 0000
00000060: 0400 0000 0400 0000 0400 0000 0400 0000
00000070: 0400 0000 0400 0000 0400 0000 0400 0000
00000080: 2026 1140 bf1a 1740 5f9d 1c40 482f 2440
00000090: 0000 0000 0400 0000 0400 0000 0000 0000
000000a0: c204 733f 4bf6 903f ab9b 663f 027a 853f
000000b0: d316 0040 512d 0240 72dc d63f 66db c53f
000000c0: ee0b 763f e896 4b3f b76f 693f 2e07 363f
000000d0: 4410 0f40 6ea4 2240 1113 1540 93b9 1f40
000000e0: 4c04 9a3f ee3f 843f 2d0f a83f 7076 933f
000000f0: 0400 0000 0400 0000 0400 0000 0400 0000
00000100: 7922 033f 19f0 473f c351 1c3f 07af 7f3f
00000110: 86ad 7c3f 5aea 7c3f eefb 9b3f e212 a03f
00000120: 0400 0000 0400 0000 0400 0000 0400 0000
00000130: 85be 3541 bdfa 2e41 f6e9 3741 f41a 3741
00000140: 0400 0000 0400 0000 0400 0000 0400 0000
00000150: 95e3 6e3e fc58 7d3e b854 883e 8ee0 a43e
00000160: 0400 0000 0400 0000 0400 0000 0400 0000
00000170: 0400 0000 0400 0000 0400 0000 0400 0000
00000180: 0400 0000 0400 0000 0400 0000 0400 0000
6e-45 6e-45 6e-45 6e-45 1.6883163 1.6466336 1.7079093 1.6002897
4.3908696 4.6501 4.430771 4.594248 6e-45 6e-45 6e-45 6e-45
1.9898486 2.4579148 2.1145763 2.6829367 6e-45 6e-45 6e-45 6e-45
6e-45 6e-45 6e-45 6e-45 6e-45 6e-45 6e-45 6e-45
2.267952 2.3610075 2.4471052 2.5653858 0.0 6e-45 6e-45 0.0
0.94929135 1.1325163 0.9008128 1.0427859 2.001393 2.034016 1.6786025 1.545758
0.96111953 0.7952714 0.9118609 0.71104705 2.2353678 2.541286 2.3292887 2.4957016
1.2032561 1.033201 1.3129631 1.1520519 6e-45 6e-45 6e-45 6e-45
0.51224476 0.78100735 0.6106226 0.99876446 0.98702276 0.9879509 1.2186258 1.2505763
6e-45 6e-45 6e-45 6e-45 11.359014 10.936215 11.494619 11.44408
6e-45 6e-45 6e-45 6e-45 0.23329003 0.24740976 0.26627135 0.32202572
6e-45 6e-45 6e-45 6e-45 6e-45 6e-45 6e-45 6e-45
6e-45 6e-45 6e-45 6e-45

seq.6.running_var f4 [100]
00000000: 0400 0000 0400 0000 0400 0000 0400 0000
00000010: b8fa d63f 7b19 0840 3ebd db3f c0a0 1540
00000020: f5c5 7140 6bf2 8c40 de35 7d40 9b9d 8640
00000030: 0400 0000 0400 0000 0400 0000 0400 0000
00000040: 4e4f ce40 6ee0 f840 7130 db40 e56a fd40
00000050: 0400 0000 0400 0000 0400 0000 0400 0000
00000060: 0400 0000 0400 0000 0400 0000 0400 0000
00000070: 0400 0000 0400 0000 0400 0000 0400 0000
00000080: a530 3540 69bd 8340 81c2 4840 aa6c 7a40
00000090: 0400 0000 0400 0000 0400 0000 0400 0000
000000a0: ab67 3840 a3e1 4f40 8665 2340 6568 4b40
000000b0: 9667 0b41 b58d 0741 3860 d540 add8 ce40
000000c0: 863e 813f 1049 8d3f 936a 723f 41eb 6c3f
000000d0: 9bee e740 972c 0541 db98 da40 da32 f640
000000e0: dda9 9f3f 41e9 c13f 0db4 a23f db23 c83f
000000f0: 0400 0000 0400 0000 0400 0000 0400 0000
00000100: 995f b63f 1000 0140 8665 e43f 30f9 2240
00000110: 7639 8a3f 97d6 b13f e7dd c43f 794e dc3f
00000120: 0400 0000 0400 0000 0400 0000 0400 0000
00000130: e1bf 8741 db47 9241 dee3 6641 2c4f 6c41
00000140: 0400 0000 0400 0000 0400 0000 0400 0000
00000150: c70a 1e3f e82c 2d3f 125c 323f d9d8 4e3f
00000160: 0400 0000 0400 0000 0400 0000 0400 0000
00000170: 0400 0000 0400 0000 0400 0000 0400 0000
00000180: 0400 0000 0400 0000 0400 0000 0400 0000
6e-45 6e-45 6e-45 6e-45 1.6795263 2.1265552 1.7167127 2.3379364
3.7777073 4.404592 3.9564128 4.206739 6e-45 6e-45 6e-45 6e-45
6.4471807 7.777396 6.8496633 7.9192986 6e-45 6e-45 6e-45 6e-45
6e-45 6e-45 6e-45 6e-45 6e-45 6e-45 6e-45 6e-45
2.831094 4.1168714 3.1368716 3.9128823 6e-45 6e-45 6e-45 6e-45
2.8813274 3.2481468 2.5530715 3.1782467 8.71279 8.472096 6.6679955 6.4639497
1.0097206 1.1037922 0.9469387 0.9254647 7.2478766 8.323386 6.831159 7.6937075
1.2473713 1.5149308 1.2711197 1.5635942 6e-45 6e-45 6e-45 6e-45
1.4247924 2.0156288 1.7843482 2.5464592 1.0798786 1.3893613 1.5380219 1.7211448
6e-45 6e-45 6e-45 6e-45 16.96869 18.285086 14.430632 14.769329
6e-45 6e-45 6e-45 6e-45 0.61735195 0.67646646 0.6967174 0.80799633
6e-45 6e-45 6e-45 6e-45 6e-45 6e-45 6e-45 6e-45
6e-45 6e-45 6e-45 6e-45

fc1.weight f4 [64, 202]
00000000: 4244 cc3e 4ec3 853e 44d5 a33e 5ff9 94be
00000010: d375 0f40 612f 2dc0 18b0 093f ca80 47c0
00000020: 678a 32c0 cf06 3fc0 8f9e a0bf a659 07c0
00000030: e3e6 19bd ac49 a53c f86e 65be 9053 e0bd
00000040: 8ebf 48bf ef5b 8dbf 8117 b2bf 3049 73bd
00000050: 835a 88be f1e2 c83e 4f41 61bf 6869 093f
00000060: 3617 e43d 835a e83d 0ca1 473f 7b65 babe
00000070: 660e f5be 9f37 cf3e 8846 423f 66b8 0d3f
00000080: a70a 3d40 6c06 6340 d442 2440 3d38 6440
00000090: ca1e 0b3f ec27 0e3f b856 efbe 8247 a8bd
000000a0: cff7 98c0 0aa5 45c0 79c8 84c0 68a2 8bbf
000000b0: fa54 b5c0 cbe6 51c0 b078 5ac0 9638 e2bf
000000c0: 1f7b 87c0 78a7 50c0 48fe 4ac0 da3c 2bc0
000000d0: 5458 86c0 c5ee 1dc0 90e2 d2bf ea1b 49bf
000000e0: 40da 3740 6640 d3bf c1a9 7140 163b 09bf
000000f0: 49e6 ab3d 9870 febe 4c8b e5be f8b7 0ebe
00000100: 51db b13e b179 0740 fdff afbf 6513 0f40
00000110: 683d e3bf 634d b2bf 486a 9f3f dbe0 4f40
00000120: 2fda 65bc 2a3a 163f 329e 98be 4556 eb3c
00000130: 40f0 8fbe c22c 503f 10d3 3a3d 761d 8a3f
00000140: 7ba2 9bbd cb4f 0fbf 6c55 13be 7c10 a0bb
00000150: 59b9 5cc0 dbe4 59c0 ad13 36bf 7f42 383d
00000160: a48e 653e 37ad 28bd f3d3 febe 0286 fbbc
00000170: fc09 51be 69bb 8fbe 5270 e8be e18c eebe
00000180: 9873 07bf 00c1 bcbd 1078 d03e 34d3 b53e
00000190: cecd 15bf 62f9 5f40 672b 0ac0 db73 3d3f
000001a0: 033b 97bf 0935 16c0 fb91 f1bf 4c2a afc0
000001b0: 4271 09c0 b8eb 11c0 5839 5ac0 9daa 7240
000001c0: fdec 3d40 da10 fe3e fc85 873f 4b29 0e40
000001d0: fd39 473f 09c2 853f 847d c83f 4f61 06be
000001e0: 14a1 b5c0 685c 023f df4d 06be e163 88be
000001f0: 190f 863f aa5c 0740 ffe9 f83e 394d a23f
00000200: 950a 8140 2e8e 493f 8aff 4cc0 a8dc 513e
00000210: 52e9 31c0 cf63 0f3e 6138 e03f c65a 85be
00000220: b7da 903f 1b81 2e40 a384 5d40 4b6b 37bf
00000230: 17d7 c6bf 8a21 483f 0a82 0240 5ed2 4a3e
00000240: efcb 21bf 41a2 b33e 23e2 3c3f d837 3940
00000250: b54c 2940 d346 acbe 8db3 17bf bdc6 2b3f
00000260: 8fa9 3b40 0ff5 323f dad1 d23e 7df4 9d3f
00000270: 459d 4640 70ab 0140 cdf2 5340 0bc0 81bf
00000280: b31d d3bf 6eb6 e63b 99c7 7d3f e83b 4e3f
00000290: 3427 2dbf f702 483f 29fa 9d3d 9e12 4e40
000002a0: 85e2 0140 bf9e 1dbe 9dd6 fb3e 8067 0740
000002b0: 3b81 d73f b2e0 423f 87d7 4dbe 9cc4 b73f
000002c0: e4e5 5b3f a431 30bc 824c 8540 3ce4 7dbf
000002d0: f83b 4340 dbcb 9f3f 1b72 1040 9b03 863f
000002e0: 0fb8 5e3f d7bd 93bf 109e 863f be16 e23f
000002f0: 062b 5440 b79d 283f da88 4740 2ad1 273f
00000300: 2a39 0b3f e986 d63e a07e 0f40 ce8e f43f
00000310: b94c 2040 9dfe 7940 b58e 2f40 ea0d ca3e
00000320: 9074 233e 23cf c33d 9dc2 92bf e2f5 b53f
00000330: eef2 b63f 08f2 9cbf dc64 663f 352d 2cbe
00000340: 8c86 cbbf 6ae4 12be 99ed 4f3f 4ddf 233f
00000350: 5687 1140 0241 aa3f 8459 b03f 8a1b d6bf
00000360: 24fd adbf 29f4 bebf 7d5a 003f ff8e bbbe
00000370: 178b 56be bcfd 4cbc ee8f 9dbf a802 b33f
00000380: 2048 89bf 33de c43f 515a aa3f 373a a1bf
00000390: 5e45 a73f 31e4 a5bf 325c a6bf 624f ca3f
000003a0: 2caf a83f 7936 a23f 9fa8 d1be e327 47be
000003b0: b771 2bbf a5ab cebe 6b7a a63f 41f2 a43f
000003c0: da87 9abf 7072 aabf c4bb 45be 2f95 55be
000003d0: 23ab 693f 3fdc 843e 43da 9bbe 2d28 62bd
000003e0: 059d 113f d4fb 93be 7c70 a1bc 8ce4 563e
000003f0: d897 703e 126e 343f 481b 303f 24d6 523f
0.39895827 0.26125568 0.31998646 -0.29096505 2.2415664 -2.7060168 0.5378432 -3.1172357
-2.7896974 -2.9847906 -1.2548388 -2.1148467 -0.037573706 0.020176731 -0.22405612 -0.10953438
-0.7841729 -1.1043681 -1.3913423 -0.05939597 -0.26631555 0.39235643 -0.8799028 0.5367646
0.1113724 0.11345389 0.77980113 -0.36405548 -0.47862548 0.40472123 0.7588887 0.55359495
2.9537752 3.547267 2.5665789 3.5659325 0.54343855 0.55529666 -0.4674585 -0.08216764
-4.78025 -3.0881982 -4.1494718 -1.0908937 -5.666623 -3.2797115 -3.4136162 -1.7673519
-4.2337794 -3.2602215 -3.17177 -2.675589 -4.1982822 -2.4676983 -1.6475391 -0.7855822
2.872696 -1.6504028 3.775986 -0.53605783 0.08393533 -0.49695277 -0.44832838 -0.13937366
0.34737638 2.1168025 -1.3749996 2.2355587 -1.7753115 -1.3929867 1.245431 3.248099
-0.01402907 0.586825 -0.29808193 0.02872766 -0.28112984 0.81318295 0.04561144 1.0790241
-0.0759935 -0.5598113 -0.14388055 -0.0048847776 -3.4488127 -3.4045932 -0.7112377 0.04498529
0.22417694 -0.041180816 -0.4977108 -0.030703548 -0.20413965 -0.2807267 -0.45398194 -0.46591857
-0.5291076 -0.09216499 0.407166 0.35512698 -0.5851716 3.499596 -2.158899 0.74004906
-1.1814884 -2.346987 -1.8872675 -5.473913 -2.1475377 -2.2800121 -3.40975 3.7916634
2.9675896 0.49622232 1.0587764 2.2212703 0.7782286 1.044984 1.5663304 -0.13123058
-5.675913 0.5092225 -0.13115643 -0.26638702 1.0473357 2.1150308 0.48616025 1.2679816
4.0325418 0.78732574 -3.2030969 0.2049433 -2.7798657 0.14002918 1.7517205 -0.26045817
1.1316746 2.72663 3.4612205 -0.7164809 -1.553439 0.78176177 2.039187 0.19806811
-0.632018 0.35084727 0.7378256 2.8940334 2.6453068 -0.33647785 -0.5925835 0.67100126
2.932224 0.6990518 0.4117573 1.2340237 3.103349 2.0260887 3.3116944 -1.0136732
-1.6493438 0.0070407903 0.99132687 0.8056016 -0.67637944 0.78129524 0.0771373 3.2198863
2.0294507 -0.15392588 0.49187174 2.1156921 1.6836313 0.7612411 -0.20101748 1.4356875
0.8589766 -0.010754023 4.1655893 -0.99176383 3.0505352 1.2484087 2.2569644 1.046985
0.869996 -1.154231 1.0516987 1.766319 3.315126 0.65865654 3.1177278 0.65553534
0.543841 0.41899803 2.2421036 1.910608 2.5046828 3.9061654 2.7430851 0.3946374
0.15962434 0.095609926 -1.1465641 1.4215662 1.4292886 -1.2261362 0.8999765 -0.1681412
-1.5900435 -0.14344946 0.8122192 0.64012605 2.2738853 1.3301089 1.3777318 -1.6727154
-1.3592877 -1.4918262 0.50138074 -0.36632535 -0.20951496 -0.012511667 -1.2309549 1.3985186
-1.0725136 1.538031 1.3308812 -1.2595891 1.3068044 -1.2960263 -1.2996886 1.5805476
1.3178458 1.2672874 -0.4094896 -0.1944881 -0.6697039 -0.4036533 1.3006109 1.288643
-1.2072709 -1.3316174 -0.19309908 -0.2085769 0.9127676 0.25949284 -0.30439958 -0.055214096
0.5688022 -0.28903067 -0.019706957 0.20985621 0.23495424 0.70480454 0.6879163 0.82358

fc1.bias f4 [64]
00000000: 3cc5 763f b556 4141 9f9b 9d3f c486 2341
00000010: 29d4 8cc0 7111 9941 49e9 a4c0 64e0 813f
00000020: a7b8 51c1 8337 61c0 6f2b b6bf e358 bdc0
00000030: d0d7 8641 748a 06c1 64cf 88c0 4fbf 3441
00000040: 0e87 b9c0 393b 97c0 e240 5dc0 8473 2c41
00000050: 14b5 933f 48eb 87bf ab78 f5c0 dafb 8441
00000060: 45f6 16bf 0686 80c0 4c3f fcc0 e8f8 b2c0
00000070: 8195 86c0 04ba 02c1 f9c0 7040 ae33 7e3d
00000080: 716d c4c0 2ad0 b03f 7618 fa40 4885 2a41
00000090: 8d0a 4ec0 2b40 23c0 6aea dfc0 9330 2041
000000a0: 8306 9c40 b918 3841 9dfd efc0 f940 d3c0
000000b0: a324 94c0 8566 00c1 45a9 1bbe f8c2 2941
000000c0: 21aa 6541 a8ae 0bc0 d563 67bf a644 3240
000000d0: 79ae c6c0 edb6 fcbf 7ae7 2dc0 7537 8dc0
000000e0: 0a2b 67c0 72b6 2d41 0cac 0ec1 9ea0 5e41
000000f0: f790 a8c0 acfd 58c0 4135 7ac0 0f9c c140
0.96394706 12.083669 1.2313117 10.220402 -4.4008985 19.133516 -5.153477 1.0146604
-13.107581 -3.5190132 -1.4232005 -5.9171004 16.855377 -8.408802 -4.275316 11.296706
-5.797736 -4.7259793 -3.4570851 10.778202 1.1539636 -1.0618677 -7.67098 16.622974
-0.5896953 -4.0163603 -7.8827267 -5.592884 -4.20575 -8.170414 3.761778 0.062061004
-6.1383595 1.3813527 7.815486 10.657539 -3.219394 -2.5507915 -6.997365 10.011859
4.875795 11.506036 -7.4997087 -6.601681 -4.6294723 -8.025029 -0.1520129 10.6101
14.354035 -2.1825352 -0.90386707 2.78544 -6.208798 -1.9743325 -2.7172532 -4.4130197
-3.612002 10.857042 -8.917004 13.914213 -5.267696 -3.390483 -3.9095004 6.0503

fc2.weight f4 [3, 64]
00000000: 9fbe 743e 5e9b 9f3e ce71 a1bd 9278 963e
00000010: 43e2 41c0 1f1a 0040 e4ba 9ec0 9bba e63e
00000020: 9c75 45bf 8e39 98c0 c075 d93e 52b3 c83e
00000030: 3c77 963f f7ec f53e b6ad 9fbe 0f2e ac3e
00000040: b73d d4bb 8ed5 d9be 310d 073e 8f3e 883e
00000050: 8c13 36be 470e d1be 79c9 81bd 2bfc 893f
00000060: d826 ca3d c643 b140 02c3 6b3f d295 20be
00000070: 60cb 513f 99e6 39c0 75a7 983e 0b3f 033d
00000080: ece3 a13e 8e31 f93e ef3d 463e 08bd de3e
00000090: 39c5 67c0 c245 cac0 04a1 2abf 86c4 653e
000000a0: 846b 603d 87b0 c93e a144 aebf 8f02 b3c0
000000b0: 917c 733f 3eb8 bbbb 72a3 a73c 5ca9 6e3e
000000c0: 51b3 a63e 36a4 c9bd 870f 95bd e94c fa3e
000000d0: 55f4 74be 09a8 8e3d c4b5 5bbf 2028 5dc0
000000e0: 40df 8fc0 6229 9d3e 53ed d040 308e 003f
000000f0: 2a37 2fbf 6e1b f73e 15b5 bdc0 8499 073d
00000100: ac66 873d 1e52 8a3e de93 8e3e 3db3 8b3e
00000110: e0cd dcbd 2945 0d40 380b 1cbd 1404 23bf
00000120: aa51 5fbf 2745 4abe 1835 1b3f 2d79 193f
00000130: 4a34 953f b5b6 85c1 97e2 9fbd ff55 853e
00000140: b744 ad40 0b75 72bd 1410 16bf 602e 9b3e
00000150: 1c7f b53e 4253 d7be d001 93c0 d0b8 2b3f
00000160: 62bf 71c0 3700 acbc 061e cac0 35bd bc3e
00000170: ac15 5bc0 3ad7 d9bf 3420 073f 03fd 823d
00000180: 086a abbe 6a75 0cbe e38b 233e 757b be3e
00000190: 42e2 303e 2182 bf3d b26b 21bf a18c 793e
000001a0: d4dd 903e f3b0 d13e 9c49 753e 5b19 d2bf
000001b0: a9ec 563f 4933 eabd 7cb2 8839 8956 963e
000001c0: 36bd d93e 360d ac3e 0611 7ac0 ddfe 123f
000001d0: cbbd b140 cbdd 78c0 ff1d 2abf 229e 8bbd
000001e0: 43a6 653e 4eca 713e 5c2a 40be 26ca 053f
000001f0: 8a37 09c1 82fc e93e 68a8 13bd 4c29 523e
00000200: 5287 8ec0 3a6d 973e 81f0 59c0 491f 893e
00000210: 340d 6ac0 3aeb 1340 9203 153e 45d5 aa3f
00000220: 3857 68bf 111d b43b af80 203f 66c1 9dc0
00000230: 646e 413f 2f91 103e 6326 b140 49c7 9a3e
00000240: a471 36be a256 e23e c83a 40bf 9324 973e
00000250: 806a 323e 7529 8cbf 9d92 d83d 9b90 543f
00000260: 1d6c df3d 5e9c ddbd 884e 70c0 81e9 58be
00000270: 81dc 8dbd 5fea 93c0 ef7b b73e 19bc 66c0
00000280: cb59 e73e 4c24 5dbe 62f9 403e 1cfd e53e
00000290: 82c7 483e 61a4 f43c 4ea6 23bf 9302 8c3e
000002a0: 0f1c 9d3e 6bea b03e 57dc 14bf a165 3ac0
000002b0: 2f41 9ac0 f471 f440 ff78 6bc0 d2d2 7d3e
000002c0: d191 7c3e 5fbf 283e f73f 473e 8fba a73e
000002d0: e625 79be 74e2 1a3e 234a 37bf 3a47 92be
000002e0: e5f8 9b3e b3e1 8f3e 1a5d 3fbe 4dc7 183f
000002f0: 8fc3 093d 824b 7f3e 5088 b4be 38ba b73e
0.23900841 0.31173223 -0.07883035 0.29388863 -3.029435 2.0015943 -4.960314 0.45064244
-0.7713258 -4.7570257 0.4247265 0.3919931 1.1755137 0.48032352 -0.31187218 0.3362889
-0.0064770835 -0.42545742 0.13188626 0.26610228 -0.17780894 -0.40831205 -0.06337256 1.078008
0.0987069 5.539523 0.92094433 -0.15682152 0.8195095 -2.9046996 0.2981526 0.032042544
0.31619203 0.4867062 0.19359563 0.43503594 -3.6214125 -6.3210154 -0.6665194 0.22438249
0.054790035 0.39392492 -1.3614694 -5.5940623 0.9511195 -0.0057287505 0.020463679 0.23306793
0.32558683 -0.09845774 -0.07278352 0.48886803 -0.2392133 0.06965644 -0.8582423 -3.455574
-4.496002 0.30695635 6.5289702 0.5021696 -0.6844355 0.48263115 -5.9283547 0.03310539
0.0661138 0.27015775 0.2784719 0.27285185 -0.10781455 2.2073462 -0.038096637 -0.636781
-0.87233984 -0.19752942 0.6062789 0.59950525 1.1656582 -16.714212 -0.078068905 0.26042172
5.414638 -0.059193652 -0.58618283 0.3030882 0.3544854 -0.42055708 -4.5939713 0.67078876
-3.777306 -0.020996196 -6.316165 0.36863104 -3.4231977 -1.7018807 0.52783513 0.063959144
-0.33479333 -0.13716665 0.15971331 0.37203565 0.1727381 0.09350992 -0.63054955 0.24370052
0.2829424 0.40955314 0.23953861 -1.6413988 0.83954865 -0.11435563 0.00026072923 0.29362896
0.4252717 0.3360383 -3.907289 0.5742014 5.554418 -3.8885372 -0.6645202 -0.06817271
0.22426705 0.2361233 -0.18766159 0.5226158 -8.576059 0.4570046 -0.036049277 0.20523566
-4.4540186 0.2957552 -3.4053042 0.2678168 -3.6570559 2.311232 0.14552143 1.3346335
-0.90758085 0.005496629 0.62696356 -4.929858 0.7555907 0.14117883 5.535936 0.30230168
-0.17816788 0.4420672 -0.75089693 0.2952009 0.17423439 -1.0950152 0.10574839 0.8303315
0.10909293 -0.1082084 -3.7547932 -0.21182825 -0.069268234 -4.6223598 0.3583674 -3.6052306
0.45185694 -0.21595877 0.18845132 0.4491967 0.19607356 0.029863538 -0.63925636 0.27345714
0.3068547 0.34553847 -0.5814871 -2.912453 -4.820457 7.6389103 -3.67926 0.24787453
0.24665 0.16479252 0.19457994 0.3275952 -0.24330863 0.15125448 -0.715975 -0.28569967
0.3046333 0.28101882 -0.18687859 0.5967911 0.033633765 0.24931148 -0.35260248 0.3588426

fc2.bias f4 [3]
00000000: 11d7 4441 aa49 4741 64bc 5041
12.302506 12.455484 13.045994
