models/2conv___510.00max___92.58avg____0.00min__1658514631.model (torch, 73406 bytes, 12 tensors)

seq.0.weight f4 [16, 1, 3, 3]
-0.40759683 -2.1788962 0.27737558 -2.1751502 0.9762471 -1.3180307 0.18733552 -1.262549
0.27833974 -2.1691382 2.2003691 1.9986001 0.11249774 1.5509446 -1.9279904 1.0731944
-0.11109498 -0.2638938 0.33867443 0.67810917 -2.9326649 -0.021893365 0.30293664 -1.6137129
-0.13457258 0.11269022 -0.021011828 0.05348684 -1.2501185 -1.4121898 -0.054402523 -0.99531096
-1.1910472 -0.28264093 1.3926433 1.7846855 1.0505313 0.577757 0.30338836 1.238564
0.9221664 0.3157356 -3.3765001 1.2462714 0.51782775 0.5778478 -1.7572299 0.47557005
-1.1809845 -2.3039725 -1.1409231 0.37260416 -0.36728588 0.04387968 0.18589091 -0.101781756
-0.10238074 0.86669356 0.3872543 -0.28075862 0.42335573 -3.4929595 -1.7664901 0.28385025
-0.38614002 0.15832834 0.18308142 0.034916207 -1.5064938 0.23238228 0.5889781 -3.249458
0.151262 -1.0608052 0.40069357 -1.0613948 0.11846789 -1.5350565 0.14718622 -1.3713962
-1.4742813 -2.110505 -0.64962023 -0.41959256 0.8829269 0.27586818 -0.16687167 1.2373823
-1.9976188 0.38773414 1.3908103 1.7547932 1.6752833 1.6504486 -2.146062 2.0385256
1.792967 1.8684108 -1.8894999 1.0264235 0.71231973 0.5370933 0.87926024 -5.7025995
0.90191424 0.8496763 1.0393275 0.5626033 0.013833073 -0.33019638 0.005974494 -1.1844484
0.15580529 -0.12014771 -3.4180667 1.0626632 0.2836437 0.059506614 -0.20354992 -0.702368
-2.6597474 0.052092277 0.11327543 1.4923795 0.8418586 -1.215678 0.787075 1.3019121
-3.1659296 0.46482778 0.59694433 1.5355077 0.26462814 0.52894574 0.7042863 0.1610269
-3.2443552 -1.9886925 -0.05436378 0.35089087 -0.51712734 -0.07415803 -0.12618063 -0.003944221
00000000: 88b0 d0be 0973 0bc0 2c04 8e3e a935 0bc0
00000010: 54eb 793f 3bb5 a8bf e2d4 3f3e 359b a1bf
00000020: 8c82 8e3e 29d3 0ac0 d9d2 0c40 21d2 ff3f
00000030: 3765 e63d 5a85 c63f 64c8 f6bf 6f5e 893f
00000040: c485 e3bd 171d 87be bc66 ad3e 9098 2d3f
00000050: c8b0 3bc0 b759 b3bc 831a 9b3e 258e cebf
00000060: 65cd 09be 21ca e63d ff20 acbc 0415 5b3d
00000070: e203 a0bf a3c2 b4bf 2ed5 5ebd b3cc 7ebf
00000080: 3c74 98bf 50b6 90be 2342 b23f 9370 e43f
00000090: cf77 863f e2e7 133f b855 9b3e 4489 9e3f
000000a0: 1913 6c3f 19a8 a13e 9418 58c0 d285 9f3f
000000b0: 5c90 043f d5ed 133f e9ec e0bf eb7d f33e
000000c0: 802a 97bf 4974 13c0 c509 92bf f9c5 be3e
000000d0: e50c bcbe 2ebb 333d 305a 3e3e f472 d0bd
000000e0: feac d1bd a1df 5d3f 3246 c63e 98bf 8fbe
000000f0: 15c2 d83e a68c 5fc0 591c e2bf d254 913e
00000100: 25b4 c5be d320 223e b279 3b3e 4c04 0f3d
00000110: cad4 c0bf 9ff5 6d3e 45c7 163f 1ff7 4fc0
00000120: 6de4 1a3e 77c8 87bf b527 cd3e c9db 87bf
00000130: 4b9f f23d bb7c c4bf fcb7 163e e989 afbf
00000140: 40b5 bcbf 8412 07c0 834d 26bf d6d4 d6be
00000150: 7f07 623f 983e 8d3e 68e0 2abe 8b62 9e3f
00000160: f9b1 ffbf 1785 c63e 1206 b23f 109d e03f
00000170: af6f d63f e641 d33f 1459 09c0 3477 0240
00000180: f17f e53f 1628 ef3f 22db f1bf d861 833f
00000190: 965a 363f f27e 093f 3317 613f b27b b6c0
000001a0: dae3 663f 6384 593f af08 853f c506 103f
000001b0: 1da4 623c 800f a9be b0c5 c33b 019c 97bf
000001c0: 6c8b 1f3e 0110 f6bd 9bc1 5ac0 5905 883f
000001d0: bf39 913e 35bd 733d 646f 50be 64ce 33bf
000001e0: 4d39 2ac0 b65e 553d f3fc e73d 4b06 bf3f
000001f0: 0c84 573f 569b 9bbf bf7d 493f 0ea5 a63f
00000200: 979e 4ac0 e8fd ed3e 58d1 183f 848b c43f
00000210: 577d 873e fd68 073f 1b4c 343f 3ce4 243e
00000220: 84a3 4fc0 7a8d febf 8eac 5ebd f8a7 b33e
00000230: 7562 04bf 2ae0 97bd 7f35 01be 863e 81bb

seq.0.bias f4 [16]
-1.9588093 -3.048086 -2.6661246 -2.7451684 -2.9377832 -2.1950917 -3.7434416 -3.3077106
-1.9445113 -1.9465408 -2.6180806 -3.3414886 -3.1323297 -2.0549042 -2.8532352 -3.2670698
00000000: 43ba fabf d713 43c0 c9a1 2ac0 d7b0 2fc0
00000010: a404 3cc0 627c 0cc0 8c94 6fc0 88b1 53c0
00000020: bfe5 f8bf 4028 f9bf a28e 27c0 f3da 55c0
00000030: 1778 48c0 8d83 03c0 689b 36c0 ac17 51c0

seq.3.weight f4 [25, 16, 3, 3]
0.063039325 -0.21611126 -0.17608784 0.017205438 -0.15864895 -0.16885976 -0.110429145 -0.1015492
-0.1166209 -0.015627353 -0.46263638 0.09144474 0.01541642 -0.07896691 -0.23048198 0.032958847
-0.09872715 -0.09835203 -0.4587467 -0.40125862 -0.045521725 -0.12007078 -0.2474472 -0.62153435
-0.046338737 -0.09965183 -0.0075320723 -0.17668624 -0.6420698 -1.4281546 0.03447266 -0.13300729
-0.12861663 -0.06728038 -0.04903426 -0.02678182 -0.06106231 -0.5938648 -0.259479 -0.02120194
-0.2722261 -0.20259866 -0.06862465 -0.0924893 -0.17684549 -0.07218395 -0.5548441 -0.8666435
-0.14521644 0.054890454 -0.32370052 0.021712225 -0.084806666 0.0054737907 -0.017841384 -0.29447964
0.04615147 -0.015586114 -0.063127905 0.00019169765 0.022770818 -0.07753236 -0.027130561 -0.19513813
0.0032908064 -0.42907023 -0.03704473 -0.05797017 0.11801348 0.037395593 -0.10995367 -0.12749621
-0.6797457 -0.6548891 0.09124504 0.029586595 -0.036879968 -0.15454513 -0.047026426 0.05591491
-0.13932617 -0.08624083 -0.27539912 -1.1824249 -0.020483213 0.009065459 -0.18832287 -0.105340295
0.015979074 0.10595144 0.018965164 -0.05863711 0.24495916 -0.14014067 -0.00442874 0.29888472
-0.25696245 -0.34302923 -0.10191258 -0.12241074 0.19379246 -0.009021008 0.048291482 0.0028517318
-0.013865969 0.043244936 0.044723224 -0.10182536 -0.016380982 -0.16041328 0.106319815 -0.04383593
-0.022181587 -0.06293399 0.05962274 -0.12140212 -0.03275907 -0.46713433 -0.7945506 -0.5938225
-0.040250495 -0.6968639 -0.14319365 -0.038388 -0.19824237 -0.33075815 -0.12933002 0.48633543
0.417694 -0.09982759 -0.20028582 -0.06729216 0.036969762 -0.07485092 -0.17709516 -0.6923377
-0.46899694 -0.71680105 0.3679753 -0.07052787 0.07999741 -0.07155992 -0.108748496 -0.15887983
1.4663854 0.28326398 1.0530165 0.23779467 -0.6379952 -0.09205469 1.4861563 0.9079176
0.3631575 5.248648 2.8289375 2.87695 -0.17717564 2.9382052 -0.40473685 1.237688
1.6248562 1.4607229 -0.5271852 0.9109537 1.5557035 -1.7354094 -0.4378946 1.4719565
1.4188062 -1.9922994 1.4610372 -1.1035633 -1.4318701 0.8775484 2.0683537 0.8014081
1.3235358 -1.6935624 -2.5002954 -0.121396534 3.4403732 2.6850443 2.6020126 1.6930708
-0.73068887 2.6530964 5.398204 0.56599987 2.8443146 0.010621172 0.30853108 -0.45141461
-0.097791456 0.36556166 -0.528365 0.86318225 0.1493691 -0.8705546 -0.68944025 -0.6786841
-1.3358861 -1.0208939 0.5953191 0.50170016 -1.7501926 -1.5784931 -6.2290645 -11.497181
-0.79188275 -5.671007 -0.9399488 -3.2914276 -6.724054 -2.6683927 -5.5279145 -6.891625
0.31178865 -1.7912941 1.7808491 1.0664054 0.37138206 0.28891903 1.0801374 -1.9555897
3.1738222 -2.752968 -1.1492009 -1.5749309 1.1289527 -0.8992925 -1.3579206 -2.440811
-1.873013 -4.219833 0.58318084 -0.5312968 -0.41954195 3.8903384 1.4955668 0.5509282
3.5263712 1.0068672 1.1816974 0.54386395 0.58214295 0.6587043 -1.1521281 -0.2344755
0.2650348 -0.87800723 -0.72038245 -1.8818867 -2.8510811 -3.80512 -1.3175292 0.3974602
00000000: c31a 813d 454c 5dbe 5f50 34be 6bf2 8c3c
00000010: df74 22be 93e9 2cbe ad28 e2bd 07f9 cfbd
00000020: f0d6 eebd ef04 80bc adde ecbe 6147 bb3d
00000030: 2795 7c3c 67b9 a1bd 7803 6cbe dbff 063d
00000040: 7631 cabd ca6c c9bd d9e0 eabe c571 cdbe
00000050: fd74 3abd abe7 f5bd cc62 7dbe e01c 1fbf
00000060: b0cd 3dbd 4216 ccbd 9acf f6bb 3ded 34be
00000070: b05e 24bf c5cd b6bf 3433 0d3d 1033 08be
00000080: 14b4 03be 4cca 89bd 26d8 48bd 8c65 dbbc
00000090: 791c 7abd 8607 18bf 6eda 84be b1af adbc
000000a0: 3861 8bbe 0676 4fbe 158b 8cbd 086b bdbd
000000b0: fc16 35be 2ed5 93bd 430a 0ebf 59dc 5dbf
000000c0: 9eb3 14be d0d4 603d 13bc a5be d6dd b13c
000000d0: 1eaf adbd 7c5d b33b 1828 92bc 09c6 96be
000000e0: 5309 3d3d e65c 7fbc 3449 81bd 7202 4939
000000f0: de89 ba3c 49c9 9ebd e940 debc 4ad2 47be
00000100: 92aa 573b 18af dbbe 37bc 17bd 2172 6dbd
00000110: 0db1 f13d 1f2c 193d 642f e1bd 5e8e 02be
00000120: d003 2ebf d0a6 27bf aede ba3d 965f f23c
00000130: 730f 17bd 1441 1ebe c89e 40bd 0807 653d
00000140: 85ab 0ebe 089f b0bd 1d01 8dbe b359 97bf
00000150: 69cc a7bc 4a87 143c b6d7 40be a7bc d7bd
00000160: 8ce6 823c 12fd d83d d55c 9b3c 772d 70bd
00000170: 93d6 7a3e 0981 0fbe f71e 91bb 6b07 993e
00000180: 9590 83be 87a1 afbe 8bb7 d0bd 7bb2 fabd
00000190: 8871 463e dacc 13bc 4acd 453d 1fe4 3a3b
000001a0: 172e 63bc 9a21 313d b32f 373d d089 d0bd
000001b0: 6931 86bc 6143 24be 34be d93d 4e8d 33bd
000001c0: 29b6 b5bc 89e3 80bd f936 743d ada1 f8bd
000001d0: 602e 06bd 3b2c efbe ab67 4bbf c004 18bf
000001e0: b4dd 24bd ac65 32bf 5ba1 12be bc3c 1dbd
000001f0: 0c00 4bbe 2259 a9be 176f 04be f500 f93e
00000200: fddb d53e 6872 ccbd ba17 4dbe 79d0 89bd
00000210: 9b6d 173d 704b 99bd 6f58 35be 0b3d 31bf
00000220: 5e20 f0be 4680 37bf 4267 bc3e ea70 90bd
00000230: afd5 a33d 028e 92bd 88b7 debd 65b1 22be
00000240: 84b2 bb3f fa07 913e 3fc9 863f 7280 733e
00000250: a753 23bf 2b87 bcbd 5f3a be3f 4a6d 683f
00000260: c8ef b93e edf4 a740 500d 3540 f31f 3840
00000270: 886d 35be 8e0b 3c40 ab39 cfbe 8f6c 9e3f
00000280: 4afb cf3f f8f8 ba3f 9cf5 06bf 4334 693f
00000290: 4b21 c73f e521 debf b933 e0be 1269 bc3f
000002a0: 719b b53f ab03 ffbf 4403 bb3f 9041 8dbf
000002b0: 8547 b7bf 03a7 603f e85f 0440 1529 4d3f
000002c0: 9f69 a93f a7c6 d8bf d704 20c0 bf9e f8bd
000002d0: 132f 5c40 c4d7 2b40 6087 2640 8bb6 d83f
000002e0: 6d0e 3bbf 55cc 2940 16be ac40 5ee5 103f
000002f0: 4009 3640 6d04 2e3c c9f7 9d3e d11f e7be
00000300: e346 c8bd e62a bb3e ee42 07bf 83f9 5c3f
00000310: 37f4 183e abdc 5ebf 287f 30bf 3ebe 2dbf
00000320: 51fe aabf a7ac 82bf d566 183f 6c6f 003f
00000330: 5006 e0bf 100c cabf 7f54 c7c0 74f4 37c1
00000340: d4b8 4abf e478 b5c0 7ca0 70bf c0a6 52c0
00000350: 732b d7c0 f2c6 2ac0 ade4 b0c0 3188 dcc0
00000360: c3a2 9f3e 2049 e5bf ddf2 e33f f97f 883f
00000370: ca25 be3e 32ed 933e f141 8a3f c350 fabf
00000380: e71f 4b40 a130 30c0 0419 93bf 5697 c9bf
00000390: 8681 903f 0938 66bf 58d0 adbf 3f36 1cc0
000003a0: e4be efbf df08 87c0 574b 153f 1103 08bf
000003b0: 34ce d6be 4efb 7840 bc6e bf3f a109 0d3f
000003c0: 11b0 6140 06e1 803f dc41 973f ab3a 0b3f
000003d0: 5207 153f d8a0 283f ef78 93bf 581a 70be
000003e0: a4b2 873e 15c5 60bf fc6a 38bf aae1 f0bf
000003f0: 1d78 36c0 1687 73c0 cca4 a8bf e77f cb3e

seq.3.bias f4 [25]
-0.97425646 1.2025362 2.4296758 -0.5285171 0.87738025 -0.37308586 -0.20911896 -0.38760623
2.9601452 -0.32253465 0.6355302 0.6664541 0.7462401 0.8156288 1.7581807 -0.3667312
0.15692684 1.3804085 -1.0804405 12.315102 -0.4473495 -1.9873513 -0.3664558 -0.398685
-0.453386
00000000: df68 79bf b5ec 993f cf7f 1b40 e64c 07bf
00000010: fe9b 603f 1c05 bfbe 4823 56be 5374 c6be
00000020: 0573 3d40 4323 a5be 1bb2 223f bc9c 2a3f
00000030: 9709 3f3f 0dcd 503f 110c e13f 31c4 bbbe
00000040: 6eb1 203e 3ab1 b03f e04b 8abf a80a 4541
00000050: fe0a e5be 8761 febf 18a0 bbbe 7120 ccbe
00000060: 3622 e8be

seq.6.weight f4 [100]
0.5295724 0.18121244 0.73995113 0.0075083347 0.75992626 0.59358513 0.42888087 0.7971672
0.63152105 0.67823523 0.41258964 0.71816444 0.3147486 0.50346094 0.3627714 0.5045795
1.3551846 1.0515909 1.1693163 1.4587309 0.86136293 0.66347826 0.86092174 0.42643008
0.8866889 0.8881059 0.9819861 0.98213005 0.6299317 0.9234178 0.62595326 0.6911557
0.8313931 0.8827712 0.9541611 0.9873014 1.0 0.7343429 0.90470314 1.0
1.4181539 1.1908362 1.0671226 1.2860862 0.97461486 1.302756 1.1363888 1.105649
0.8134409 0.602659 0.56861115 0.87473 1.1629963 0.8304667 1.2992342 1.651296
0.77420586 0.94651866 0.7375507 0.45273834 0.5754348 0.7111685 0.7581752 1.0079992
0.87414354 0.6470348 0.70840716 0.73222554 0.89929634 0.3891591 0.50188065 0.953021
0.42589548 0.16855498 0.27803117 0.42437083 1.4972554 0.94876397 0.9244021 1.176373
1.0817864 0.7175368 0.92310464 0.74811155 0.88230133 0.6496372 0.58195883 0.7319677
0.67758805 0.9638685 0.5871366 0.565682 0.90470594 0.94355124 0.80940646 0.819318
0.6507921 0.65093875 0.7450874 0.8910135
00000000: 0f92 073f c18f 393e 706d 3d3f 7a08 f63b
00000010: 878a 423f 32f5 173f 4696 db3e 2613 4c3f
00000020: 5dab 213f d3a0 2d3f f33e d33e a0d9 373f
00000030: ba26 a13e d1e2 003f 2cbd b93e 1f2c 013f
00000040: b076 ad3f 889a 863f 28ac 953f b2b7 ba3f
00000050: 4882 5c3f b6d9 293f 5e65 5c3f 0b55 da3e
00000060: 0bfe 623f e95a 633f 7163 7b3f e06c 7b3f
00000070: 3443 213f 1c65 6c3f 793e 203f 94ef 303f
00000080: 2ed6 543f 4bfd 613f e743 743f c9bf 7c3f
00000090: 0000 803f e5fd 3b3f a09a 673f 0000 803f
000000a0: 1186 b53f 526d 983f 7997 883f 799e a43f
000000b0: 5c80 793f b5c0 a63f 3075 913f e885 8d3f
000000c0: aa3d 503f dc47 1a3f 8090 113f 4eee 5f3f
000000d0: 10dd 943f 7799 543f 4e4d a63f ab5d d33f
000000e0: 5b32 463f 0c4f 723f 1fd0 3c3f 52cd e73e
000000f0: b24f 133f 240f 363f c517 423f 1e06 813f
00000100: dfc7 5f3f 13a4 253f 2c5a 353f 2273 3b3f
00000110: 4938 663f dd3f c73e 407b 003f 2ff9 733f
00000120: f90e da3e ad99 2c3e 1a5a 8e3e 2247 d93e
00000130: 11a6 bf3f 32e2 723f 9ea5 6c3f 6493 963f
00000140: fa77 8a3f 7eb0 373f 9650 6c3f 3d84 3f3f
00000150: 80de 613f a04e 263f 41fb 143f 3c62 3b3f
00000160: 6976 2d3f 16c0 763f 964e 163f 89d0 103f
00000170: cf9a 673f 938c 713f 4335 4f3f d3be 513f
00000180: 509a 263f eca3 263f 0cbe 3e3f 7619 643f

seq.6.bias f4 [100]
0.05460037 -0.22488692 -0.10594109 0.1044853 0.10678154 -0.045248594 -6.0990627e-05 -0.004209794
0.24242412 0.2053494 0.18589933 0.33791214 -0.11132733 0.24488747 0.092837594 0.06473638
0.5564711 0.5222585 0.46553585 0.6822186 0.19501485 -0.18592587 0.15694225 -0.14049605
-0.16833377 0.050672974 -0.20676619 0.14648707 0.025235983 -0.046521045 -0.10141058 -0.25825155
-0.58202004 -0.54754883 -0.3868016 -0.47010565 -0.18000568 -0.15497777 0.030472372 0.16218762
0.42634597 0.5761167 0.41448504 0.55619574 0.4742251 0.6438074 0.48213896 0.51120806
-0.08723954 -0.31949502 -0.16439305 -0.14858513 0.5860532 0.43925422 0.74689955 0.9027253
0.048688427 -0.2647714 -0.115000024 -0.12064281 0.07189562 0.06472527 0.08837279 0.058829755
0.16418932 0.28895602 0.12886786 0.20148309 -0.24969639 -0.00018743807 -0.00124786 0.0054592593
-0.17586063 0.0049747066 0.10509071 -0.11695212 -0.99388593 -0.80127347 -0.7551109 -0.8641098
-0.25372377 0.15056776 0.14268415 0.11701181 0.14812116 -0.06780909 0.11321808 0.1038274
-0.1844065 0.18791685 0.09984601 0.048152756 -0.19894959 0.094822586 0.12048128 0.060997628
0.14006875 -0.083512485 -0.1583479 -0.14121139
00000000: a3a4 5f3d c248 66be a4f7 d8bd 64fc d53d
00000010: 48b0 da3d 9756 39bd 30d0 7fb8 50f2 89bb
00000020: 073e 783e 1d47 523e 655c 3e3e d202 ad3e
00000030: 95ff e3bd c8c3 7a3e a321 be3d 8294 843d
00000040: e474 0e3f bcb2 053f b75a ee3e e1a5 2e3f
00000050: f9b1 473e 5a63 3ebe 78b5 203e 32de 0fbe
00000060: b05f 2cbe 778e 4f3d 84ba 53be b500 163e
00000070: b1bb ce3c da8c 3ebd 5ab0 cfbd 8c39 84be
00000080: 44ff 14bf 292c 0cbf dc0a c6be b0b1 f0be
00000090: 6953 38be 7eb2 1ebe 32a1 f93c 8314 263e
000000a0: 054a da3e 627c 133f 6237 d43e d862 0e3f
000000b0: a2cd f23e 90d0 243f ebda f63e 88de 023f
000000c0: a5aa b2bd da94 a3be a756 28be b326 18be
000000d0: 9507 163f eee5 e03e cf34 3f3f 0119 673f
000000e0: 846d 473d 1e90 87be 2285 ebbd 9413 f7bd
000000f0: 033e 933d af8e 843d cbfc b43d 78f7 703d
00000100: 3f21 283e 0bf2 933e f0f5 033e 9551 4e3e
00000110: 69b0 7fbe 068b 44b9 3c8f a3ba 96e3 b23b
00000120: cf14 34be dd02 a33b cc39 d73d 9884 efbd
00000130: 4f6f 7ebf 4220 4dbf f34e 41bf 4d36 5dbf
00000140: 15e8 81be 6f2e 1a3e cb1b 123e e3a3 ef3d
00000150: 13ad 173e 7edf 8abd e1de e73d 76a3 d43d
00000160: 0fd5 3cbe 466d 403e 117c cc3d d33b 453d
00000170: 71b9 4bbe 5832 c23d e4be f63d a6d8 793d
00000180: 2f6e 0f3e 9808 abbd f425 22be b899 10be

seq.6.running_mean f4 [100]
6e-45 6e-45 6e-45 6e-45 1.241305 1.1962376 1.24312 1.0918283
3.209932 3.1707509 3.2200387 3.2649796 6e-45 6e-45 6e-45 6e-45
1.7515894 2.0086858 1.851755 2.2724507 6e-45 6e-45 6e-45 6e-45
6e-45 6e-45 6e-45 6e-45 6e-45 6e-45 6e-45 6e-45
1.9755819 2.1386662 2.1464207 2.337235 0.0 6e-45 6e-45 0.0
1.265931 1.3167748 1.3292681 1.3920203 1.9343764 1.8482169 1.765119 1.645669
0.79414696 0.6281331 0.74641144 0.59451723 1.8097732 2.0888019 1.9509509 2.0800767
1.2464291 1.1112498 1.3364868 1.2353808 6e-45 6e-45 6e-45 6e-45
0.49994716 0.7026803 0.52498114 0.8839588 1.1052837 1.1420398 1.3176515 1.3834537
6e-45 6e-45 6e-45 6e-45 10.510334 10.2000885 10.580651 10.366119
6e-45 6e-45 6e-45 6e-45 0.27616435 0.19944099 0.2387383 0.25745535
6e-45 6e-45 6e-45 6e-45 6e-45 6e-45 6e-45 6e-45
6e-45 6e-45 6e-45 6e-45
00000000: 0400 0000 0400 0000 0400 0000 0400 0000
00000010: 15e3 9e3f 501e 993f 8e1e 9f3f 08c1 8b3f
00000020: 876f 4d40 95ed 4a40 1d15 4e40 6df5 5040
00000030: 0400 0000 0400 0000 0400 0000 0400 0000
00000040: 1534 e03f 4f8e 0040 4f06 ed3f d56f 1140
00000050: 0400 0000 0400 0000 0400 0000 0400 0000
00000060: 0400 0000 0400 0000 0400 0000 0400 0000
00000070: 0400 0000 0400 0000 0400 0000 0400 0000
00000080: dedf fc3f e8df 0840 f55e 0940 4295 1540
00000090: 0000 0000 0400 0000 0400 0000 0000 0000
000000a0: 070a a23f 148c a83f 7525 aa3f b92d b23f
000000b0: a599 f73f 5f92 ec3f 6bef e13f 48a5 d23f
000000c0: 374d 4b3f 55cd 203f d214 3f3f 4832 183f
000000d0: a6a6 e73f eeae 0540 c2b8 f93f fa1f 0540
000000e0: fd8a 9f3f 6f3d 8e3f 0012 ab3f f520 9e3f
000000f0: 0400 0000 0400 0000 0400 0000 0400 0000
00000100: 13f9 ff3e dbe2 333f 2a65 063f 204b 623f
00000110: f079 8d3f 5c2e 923f cea8 a83f 0315 b13f
00000120: 0400 0000 0400 0000 0400 0000 0400 0000
00000130: 542a 2841 9033 2341 594a 2941 a0db 2541
00000140: 0400 0000 0400 0000 0400 0000 0400 0000
00000150: 6a65 8d3e 423a 4c3e d077 743e 30d1 833e
00000160: 0400 0000 0400 0000 0400 0000 0400 0000
00000170: 0400 0000 0400 0000 0400 0000 0400 0000
00000180: 0400 0000 0400 0000 0400 0000 0400 0000

seq.6.running_var f4 [100]
6e-45 6e-45 6e-45 6e-45 1.1951573 1.52928 1.1727202 1.2507994
2.7341075 2.6592898 2.798055 2.909438 6e-45 6e-45 6e-45 6e-45
4.3894606 4.7733116 4.1996584 5.211031 6e-45 6e-45 6e-45 6e-45
6e-45 6e-45 6e-45 6e-45 6e-45 6e-45 6e-45 6e-45
2.2830667 2.6079934 2.325698 2.6708736 6e-45 6e-45 6e-45 6e-45
3.2992272 3.4559019 3.443553 3.9825878 7.1140637 7.483053 6.172245 6.496698
0.79344505 0.6522301 0.7024388 0.63284284 5.356778 6.585767 5.614276 5.4838967
1.1332402 1.2164605 1.0847067 1.3233106 6e-45 6e-45 6e-45 6e-45
1.2734174 1.5197752 1.221655 1.8295292 1.3825569 1.4369324 1.6775652 1.8135738
6e-45 6e-45 6e-45 6e-45 12.674943 13.362438 11.848767 11.624567
6e-45 6e-45 6e-45 6e-45 0.7534579 0.42383343 0.5185335 0.52005357
6e-45 6e-45 6e-45 6e-45 6e-45 6e-45 6e-45 6e-45
6e-45 6e-45 6e-45 6e-45
00000000: 0400 0000 0400 0000 0400 0000 0400 0000
00000010: eafa 983f 72bf c33f b21b 963f 321a a03f
00000020: 9efb 2e40 ce31 2a40 5513 3340 3b34 3a40
00000030: 0400 0000 0400 0000 0400 0000 0400 0000
00000040: 7676 8c40 f8be 9840 9a63 8640 c4c0 a640
00000050: 0400 0000 0400 0000 0400 0000 0400 0000
00000060: 0400 0000 0400 0000 0400 0000 0400 0000
00000070: 0400 0000 0400 0000 0400 0000 0400 0000
00000080: c41d 1240 5de9 2640 3cd8 1440 98ef 2a40
00000090: 0400 0000 0400 0000 0400 0000 0400 0000
000000a0: 8a26 5340 7f2d 5d40 2c63 5c40 b8e2 7e40
000000b0: 69a6 e340 2c75 ef40 0883 c540 f3e4 cf40
000000c0: 371f 4b3f 8df8 263f 07d3 333f fd01 223f
000000d0: ba6a ab40 9abe d240 26a8 b340 157c af40
000000e0: 040e 913f fab4 9b3f abd7 8a3f 3e62 a93f
000000f0: 0400 0000 0400 0000 0400 0000 0400 0000
00000100: 57ff a23f fe87 c23f 315f 9c3f 032e ea3f
00000110: a0f7 b03f 67ed b73f 75ba d63f 3023 e83f
00000120: 0400 0000 0400 0000 0400 0000 0400 0000
00000130: 91cc 4a41 8ccc 5541 8d94 3d41 3afe 3941
00000140: 0400 0000 0400 0000 0400 0000 0400 0000
00000150: 9ee2 403f b200 d93e 9dbe 043f 3b22 053f
00000160: 0400 0000 0400 0000 0400 0000 0400 0000
00000170: 0400 0000 0400 0000 0400 0000 0400 0000
00000180: 0400 0000 0400 0000 0400 0000 0400 0000

fc1.weight f4 [64, 202]
0.41388983 0.40013707 0.39576894 -0.17211089 2.5291655 -3.1868515 0.20676866 -2.9392095
-2.4936552 -3.420019 -0.81113684 -1.5568122 0.033153318 -0.043468118 -0.17574865 -0.2198923
-1.2098929 -0.7121118 -1.2720255 -0.6264407 -0.23234068 0.2892926 -0.38470894 0.51836246
0.0023552743 0.0029610712 0.6181326 -0.31764427 -0.59866583 0.314375 0.39554814 0.21622996
2.376673 3.3970635 2.7407298 2.5745263 0.4348331 0.3877982 -0.10055417 0.010229746
-5.6404347 -2.8963485 -3.5526237 -1.0619121 -6.419928 -2.8874388 -3.7867887 -1.389813
-4.2403793 -2.8909519 -2.7410934 -2.7584765 -4.1711173 -3.0810614 -2.2125478 -0.57391
2.5420263 -1.4585023 2.6792414 -0.40725443 -0.22265776 -0.41189408 -0.18266493 -0.56925994
0.5505633 1.8579574 -0.68848664 2.0541532 -1.4885732 -1.2293272 1.0490322 3.3266969
0.30725738 0.6740232 -0.57931167 0.044749398 0.04722702 0.7728468 0.20685945 1.1155512
-0.03802028 -0.60165846 -0.20057376 0.011634777 -4.0807495 -3.383638 -0.9039149 0.8058197
0.2524487 -0.076287866 -0.74396145 -0.1179269 0.062184874 -0.04970981 -0.40207922 -0.3357706
-0.25995186 0.20455348 0.15952396 0.60931516 -1.5597363 3.0701842 -1.8505294 1.2215705
-0.10231169 -1.7755374 -2.2432566 -4.5234838 -1.8157789 -2.2753289 -4.0692225 4.341271
3.1156704 0.69454044 1.8162135 1.7258071 0.98244596 1.2382853 0.044362728 -0.41028535
-6.179223 1.0294709 1.2311264 2.338932 0.8954233 2.0624166 1.398384 1.2990507
1.9595556 0.67017424 -2.0997312 -1.3738172 -2.47345 1.6500971 -0.16277635 -0.9882658
2.1632354 4.2424197 2.5610697 -0.23233366 -1.315432 0.20306772 1.9865987 -0.20727304
-0.17774774 1.1066374 0.7601423 2.2072616 2.8994472 0.85854137 -1.762024 0.73860663
1.2264248 -0.6238274 1.4114635 1.6283395 1.9251262 1.532411 3.5119133 -0.27453965
-2.0980895 -0.6818887 -0.8388882 1.6056415 -1.1532025 0.66819155 -0.5700493 2.7505558
1.7159404 0.9273481 0.85616314 3.5503857 1.1228621 -0.007981551 -1.598482 0.6535159
0.026772399 -0.02949078 3.7711942 -0.4856384 3.1210876 1.7616675 2.0399067 1.2210336
1.728635 -0.23108773 -0.5134204 1.2758024 3.2151792 1.6266453 4.251721 1.945613
-1.2524161 -0.23024455 2.5115848 1.8536551 1.4885482 4.026291 2.9811425 1.404892
0.31146878 -0.18367505 -1.0240631 1.5324373 1.1412035 -0.9783149 -0.5916 -0.2300052
-1.8647618 0.076930724 0.33657098 -0.3156854 2.0079954 1.0181628 1.2758054 -1.3796111
-1.2634467 -1.200828 0.35749763 0.30688888 -0.17835283 -0.16032681 -1.0332798 1.4262538
-1.07612 1.4353554 1.1394626 -1.1528482 1.1195273 -1.268696 -1.2401462 1.5059686
1.6199032 1.5243421 -0.86424726 -0.57858634 -0.85754615 -0.38479778 1.3508365 1.1538578
-0.9767446 -1.2536514 -0.37850463 -0.16007376 0.9664788 0.38562834 -0.4894094 0.30367404
0.24760918 0.10411781 -0.31018662 0.04542951 0.6781845 0.24967007 0.22436532 1.0814044
00000000: 5ee9 d33e c4de cc3e 3aa2 ca3e d63d 30be
00000010: d9dd 2140 60f5 4bc0 2abb 533e 021c 3cc0
00000020: 0c98 1fc0 97e1 5ac0 aaa6 4fbf 9f45 c7bf
00000030: c6cb 073d a00b 32bd 74f7 33be 722b 61be
00000040: c5dd 9abf f54c 36bf bbd1 a2bf 6b5e 20bf
00000050: b7ea 6dbe 291e 943e 92f8 c4be 67b3 043f
00000060: f25a 1a3b 880e 423b f03d 1e3f 45a2 a2be
00000070: 2a42 19bf c3f5 a03e 4985 ca3e 636b 5d3e
00000080: 691b 1840 7d69 5940 1e68 2f40 0ac5 2440
00000090: 72a2 de3e 7c8d c63e 58ef cdbd aa9a 273c
000000a0: 717e b4c0 c65d 39c0 305e 63c0 bcec 87bf
000000b0: 0d70 cdc0 cccb 38c0 bf5a 72c0 64e5 b1bf
000000c0: 30b1 87c0 5b05 39c0 136e 2fc0 e18a 30c0
000000d0: cb79 85c0 1c30 45c0 629a 0dc0 c4eb 12bf
000000e0: 8fb0 2240 34b0 babf b178 2b40 a783 d0be
000000f0: 6500 64be c8e3 d2be 840c 3bbe 05bb 11bf
00000100: b7f1 0c3f 8cd1 ed3f a940 30bf 3f77 0340
00000110: 9189 bebf 985a 9dbf b046 863f 9ae8 5440
00000120: d750 9d3e c98c 2c3f c54d 14bf 254b 373d
00000130: 1f71 413d 4ad9 453f f7d2 533e 62ca 8e3f
00000140: 27bb 1bbd 4a06 1abf 3563 4dbe cb9f 3e3c
00000150: 8095 82c0 868d 58c0 f866 67bf 334a 4e3f
00000160: f540 813e d03c 9cbd 4274 3ebf a983 f1bd
00000170: 91b5 7e3d 849c 4bbd 54dd cdbe 20ea abbe
00000180: 6918 85be 7876 513e 405a 233e 14fc 1b3f
00000190: 70a5 c7bf e67d 4440 26de ecbf 6c5c 9c3f
000001a0: cb88 d1bd cf44 e3bf 8491 0fc0 61c0 90c0
000001b0: 716b e8bf fd9e 11c0 1237 82c0 b1eb 8a40
000001c0: 2567 4740 67cd 313f af79 e83f 3fe7 dc3f
000001d0: 9481 7b3f 2280 9e3f b1b5 353d ec10 d2be
000001e0: 32bc c5c0 b4c5 833f 8d95 9d3f 10b1 1540
000001f0: 763a 653f a2fe 0340 3ffe b23f 4b47 a63f
00000200: b8d2 fa3f 8a90 2b3f ff61 06c0 3ed9 afbf
00000210: 014d 1ec0 6236 d33f d8ae 26be fdfe 7cbf
00000220: 7372 0a40 e7c1 8740 91e8 2340 e0e8 6dbe
00000230: 1360 a8bf fcf0 4f3e de48 fe3f 623f 54be
00000240: 8103 36be 4ba6 8d3f b098 423f c643 0d40
00000250: 8b90 3940 5ec9 5b3f 018a e1bf 5315 3d3f
00000260: 7dfb 9c3f 27b3 1fbf d6aa b43f 6e6d d03f
00000270: 896a f63f 0b26 c43f 30c3 6040 7690 8cbe
00000280: 1947 06c0 4290 2ebf 61c1 56bf a985 cd3f
00000290: 249c 93bf 9a0e 2b3f c0ee 11bf 1b09 3040
000002a0: efa3 db3f af66 6d3f 822d 5b3f 8539 6340
000002b0: f2b9 8f3f 0dc5 02bc 0f9b ccbf d14c 273f
000002c0: ca51 db3c a696 f1bc 3f5b 7140 99a5 f8be
000002d0: e6bf 4740 527e e13f d58d 0240 d44a 9c3f
000002e0: e943 dd3f 43a2 6cbe 856f 03bf 7e4d a33f
000002f0: 7fc5 4d40 ea35 d03f 190e 8840 d909 f93f
00000300: 2c4f a0bf 3ac5 6bbe cebd 2040 9244 ed3f
00000310: bf88 be3f 60d7 8040 0acb 3e40 80d3 b33f
00000320: d678 9f3e 5015 3cbe 8014 83bf e826 c43f
00000330: f512 923f d872 7abf 1973 17bf 7c86 6bbe
00000340: 84b0 eebf db8d 9d3d 0853 ac3e 84a1 a1be
00000350: ff82 0040 2953 823f 974d a33f 1997 b0bf
00000360: 9fb8 a1bf bbb4 99bf ee09 b73e 8a20 9d3e
00000370: 20a2 36be b62c 24be 8342 84bf 7c8f b63f
00000380: 4dbe 89bf bab9 b73f e9d9 913f 8890 93bf
00000390: ac4c 8f3f a164 a2bf 1cbd 9ebf 94c3 c03f
000003a0: fd58 cf3f a41d c33f 4f3f 5dbf 3c1e 14bf
000003b0: 2588 5bbf 3704 c5be 36e8 ac3f 9db1 933f
000003c0: ef0b 7abf a677 a0bf 5ccb c1be 60ea 23be
000003d0: 286b 773f 1471 c53e de93 fabe 2a7b 9b3e
000003e0: 438d 7d3e b83b d53d c8d0 9ebe 4b14 3a3d
000003f0: 809d 2d3f 83a9 7f3e 06c0 653e 766b 8a3f

fc1.bias f4 [64]
1.1131018 11.913647 1.1640326 10.267016 -3.8571253 17.949135 -4.637737 1.8737978
-11.512962 -3.5257277 -1.2038594 -5.11399 15.840787 -7.734938 -4.0166945 10.885765
-5.4096184 -4.3795047 -2.6696124 10.318599 0.61453897 0.65129167 -7.3575664 15.816342
-0.10948134 -3.9974945 -6.9573684 -4.322494 -3.7432184 -7.1045933 5.255465 0.39309117
-5.3617163 1.8718073 7.9787416 10.380606 -2.9903147 -2.226647 -7.0803313 9.974038
5.2066617 10.930711 -6.913278 -5.5757046 -4.32889 -7.8534217 0.10838512 9.996535
14.119845 -0.24098998 -0.72138727 3.9015381 -6.0984945 -1.2201154 -2.3264737 -3.7155
-3.0007274 10.42461 -7.9031234 13.29456 -4.4219184 -2.0016973 -3.7802148 6.4628077
00000000: 1f7a 8e3f 4c9e 3e41 05ff 943f b345 2441
00000010: 24db 76c0 d497 8f41 5768 94c0 9bd8 ef3f
00000020: 1835 38c1 86a5 61c0 1118 9abf cea5 a3c0
00000030: dd73 7d41 9d84 f7c0 c388 80c0 182c 2e41
00000040: 981b adc0 e724 8cc0 eeda 2ac0 fb18 2541
00000050: 6d52 1d3f 0dbb 263f 2f71 ebc0 bd0f 7d41
00000060: c137 e0bd f3d6 7fc0 c3a2 dec0 df51 8ac0
00000070: e490 6fc0 d458 e3c0 c52c a840 3f43 c93e
00000080: 2e93 abc0 6297 ef3f da51 ff40 f616 2641
00000090: 5161 3fc0 6281 0ec0 1392 e2c0 a995 1f41
000000a0: f99c a640 31e4 2e41 9339 ddc0 2c6c b2c0
000000b0: 4486 8ac0 3b4f fbc0 05f9 dd3d cff1 1f41
000000c0: e3ea 6141 14c6 76be d6ac 38bf cdb2 7940
000000d0: de26 c3c0 be2c 9cbf f2e4 14c0 c1ca 6dc0
000000e0: eb0b 40c0 34cb 2641 63e6 fcc0 85b6 5441
000000f0: 5b80 8dc0 cf1b 00c0 0aef 71c0 52cf ce40

fc2.weight f4 [3, 64]
0.18246157 0.3603256 -0.020408943 0.24926 -0.916846 1.9639307 -4.897253 0.22294125
-0.57290316 -4.1848683 0.44152766 -0.08182929 1.1328202 0.5219566 -0.22140187 0.3752755
-0.15413865 -0.2961368 0.111116104 0.25868043 -0.21326283 -0.38015494 -0.02966197 1.0775337
0.10834799 6.406597 1.1821935 -0.0972635 1.1810974 -5.280572 0.17281063 0.066196956
0.48214358 0.56404704 0.2221118 0.3942364 -3.1015487 -6.662951 -0.66016805 0.16154283
0.10687162 0.36123288 -0.7491022 -5.5744343 0.32244247 -0.09055368 -0.014320671 0.28391832
0.3146114 -0.020554675 0.045051638 0.49836883 -0.3242895 0.21039611 -0.5838298 -4.0664334
-5.102539 0.23547958 7.184112 0.43814245 -0.16208422 0.33240616 -5.8363323 0.14401221
0.10053413 0.2938239 0.29762268 0.23327278 -0.17380314 2.0734956 0.079634205 0.037626382
-0.7746043 -0.055045538 0.47568217 2.0632555 1.1556717 -16.090527 -0.17229225 0.2421597
5.6600947 -0.046873413 -0.6160269 0.26911747 0.39913332 -0.24559419 -6.259166 0.72967464
-4.095674 -0.07090247 -7.129721 0.3629868 -3.4188175 0.21438357 0.3781045 0.09763568
-0.23826085 0.010017901 0.19313139 0.32170427 -0.015348543 0.12422204 -0.6152239 0.18036136
0.26231676 0.47077414 0.4286346 -0.2949182 0.27456295 -0.103555955 0.005811999 0.33152667
0.51198834 0.22583905 -4.006778 0.41622522 6.0749526 -4.1420836 -0.7296835 -0.05321682
0.045330547 0.23249544 -0.17889062 0.4607355 -8.51383 0.30432478 0.19017644 0.23713486
-4.6008825 0.34314674 -2.939302 0.21410494 -4.0903063 2.2182434 0.21075071 0.53017634
-0.90340835 -0.14315474 0.43642086 -2.4514768 0.8171295 0.26290098 5.600489 0.34038022
-0.12070254 0.6096262 -0.32655346 0.25965333 0.1581206 -0.4696827 1.2978169 0.8108632
0.20672444 -0.3798067 -4.2892046 -0.3136097 0.8539246 -6.228692 0.073596425 -3.2319522
0.5225677 -0.32226038 0.23142144 0.3242557 0.35880756 0.08706332 -0.6108268 0.17788975
0.30960202 0.32619506 0.076140516 -3.7453191 -4.2333107 7.8390307 -3.9601402 0.31072193
0.3277007 0.17912945 0.08250514 0.36712337 -0.21983078 0.14108527 -0.65360963 0.21983065
0.18375373 0.2680109 -0.19448406 0.5020767 0.25849733 0.3133089 -0.104128934 0.2954881
00000000: 35d7 3a3e 997c b83e a830 a7bc 033e 7f3e
00000010: 6bb6 6abf 1562 fb3f 4cb6 9cc0 b64a 643e
00000020: c8a9 12bf 71ea 85c0 ea0f e23e 1d96 a7bd
00000030: 4100 913f f39e 053f 2cb7 62be 1c24 c03e
00000040: 86d6 1dbe 3e9f 97be d790 e33d c371 843e
00000050: 9261 5abe aba3 c2be a9fd f2bc a0ec 893f
00000060: 8de5 dd3d d802 cd40 1e52 973f 1632 c7bd
00000070: 332e 973f 72fa a8c0 45f5 303e 4592 873d
00000080: 86db f63e 6365 103f 4771 633e 5ad9 c93e
00000090: c67f 46c0 e536 d5c0 c600 29bf 7c6b 253e
000000a0: 82df da3d 84f3 b83e 29c5 3fbf c461 b2c0
000000b0: 2e17 a53e 3574 b9bd 3fa1 6abc be5d 913e
000000c0: bf14 a13e 4762 a8bc 1188 383d 332a ff3e
000000d0: 4609 a6be 1472 573e df75 15bf 3920 82c0
000000e0: 0048 a3c0 8f21 713e 3fe4 e540 3554 e03e
000000f0: 68f9 25be 2431 aa3e 3cc3 bac0 f077 133e
00000100: d7e4 cd3d 1670 963e 0062 983e 0fdf 6e3e
00000110: 73f9 31be 27b4 0440 4217 a33d 1f1e 1a3d
00000120: 784c 46bf 6e77 61bd 9d8c f33e 610c 0440
00000130: 0ded 933f 66b9 80c1 616d 30be b6f8 773e
00000140: 7f1f b540 56fe 3fbd f0b3 1dbf c4c9 893e
00000150: 345b cc3e 0b7d 7bbe 164b c8c0 f5cb 3a3f
00000160: c30f 83c0 5035 91bd ad26 e4c0 68d9 b93e
00000170: e8cd 5ac0 5e87 5b3e ea96 c13e 37f5 c73d
00000180: a7fa 73be 1f22 243c 3cc4 453e 6cb6 a43e
00000190: 7578 7bbc 2068 fe3d 507f 1dbf a6b0 383e
000001a0: 624e 863e 4f09 f13e ff75 db3e 85ff 96be
000001b0: 8493 8c3e 2515 d4bd 9572 be3b ddbd a93e
000001c0: ab11 033f 5a42 673e 8637 80c0 791b d53e
000001d0: 0366 c240 f38b 84c0 8acc 3abf e1f9 59bd
000001e0: 86ac 393d 4913 6e3e 1a2f 37be 86e5 eb3e
000001f0: a638 08c1 75d0 9b3e 9dbd 423e 7bd3 723e
00000200: 6e3a 93c0 eeb0 af3e 861d 3cc0 533e 5b3e
00000210: cae3 82c0 b3f7 0d40 09cf 573e a3b9 073f
00000220: c545 67bf 2897 12be 8e72 df3e ffe4 1cc0
00000230: 662f 513f f59a 863e 3537 b340 5146 ae3e
00000240: e532 f7bd 7610 1c3f 0432 a7be 48f1 843e
00000250: 5eea 213e 407a f0be dd1e a63f bb94 4f3f
00000260: 92af 533e 0676 c2be 2a41 89c0 7391 a0be
00000270: cd9a 5a3f 7251 c7c0 b9b9 963d 4ed8 4ec0
00000280: ffc6 053f 50ff a4be bef9 6c3e d804 a63e
00000290: a0b5 b73e 414e b23d 255f 1cbf bb28 363e
000002a0: 2884 9e3e 0a03 a73e 8fef 9b3d 4fb3 6fc0
000002b0: 4877 87c0 57d9 fa40 f072 7dc0 f216 9f3e
000002c0: 63c8 a73e b66d 373e 74f8 a83d 98f7 bb3e
000002d0: 521b 61be a878 103e f652 27bf 491b 613e
000002e0: f029 3c3e ba38 893e d426 47be 1988 003f
000002f0: c359 843e 066a a03e 8d41 d5bd 374a 973e

fc2.bias f4 [3]
11.552696 11.414957 12.485231
00000000: d8d7 3841 aaa3 3641 82c3 4741
